log/BPDnet16_specAugment/Model/best.pth (torch, 764310 bytes, 59 tensors)

conv1.weight f4 [16, 1, 7, 7]
000000 f9 6e 9e bd 2f 22 0a be 06 e2 d9 3d 4b 88 4a bd
       -0.0773601 -0.13489603 0.10638814 -0.049446385
000010 e1 9b 60 bd 3c 03 84 3d f0 9a ab 3c df b9 cd bd
       -0.054836158 0.064459294 0.020947903 -0.10045218
000020 3b 9e 3f 3d 97 2b 81 3d fc a9 38 3d 0b c9 f7 bd
       0.04678176 0.06307142 0.045083985 -0.12098893
000030 e9 32 47 3d 84 e5 96 bc c2 cd 9f 3c bb b7 d8 bc
       0.048632536 -0.018419988 0.019507293 -0.026454797
000040 f7 52 cc 3d de 3d 76 bd 60 74 dc bd 41 63 29 bd
       0.09976762 -0.060117595 -0.10764384 -0.04135442
000050 98 e7 2f 3c 56 b7 a2 bc de c8 ca bd 7c 42 e6 bd
       0.010736369 -0.019862812 -0.099015936 -0.1124315
000060 47 bb e1 bd b9 01 81 3d 43 2d 3b 3c 44 e5 b0 3d
       -0.110220484 0.06299157 0.011424365 0.08637479
000070 b6 52 87 bd 8f 4a 45 bd 15 96 5d 38 08 b0 32 bd
       -0.06607573 -0.048166808 5.283028e-05 -0.043624908
000080 3b 43 e5 3c c6 a7 3d 3d b3 ae 98 3d ac 74 cb bd
       0.02798616 0.04630258 0.07455196 -0.09934363
000090 f1 a6 b6 bc a0 27 96 3d c3 4d 97 3c b8 1e 87 3d
       -0.0222964 0.073317766 0.018469697 0.06597656
0000a0 35 ae 23 3d 60 a4 da 3d 15 50 8d bd a6 0c 29 3d
       0.03996106 0.10675883 -0.0690004 0.041271828
0000b0 4b d8 d8 3d a2 26 77 bc 6c 96 91 3b ff 8e 39 bd
       0.105881296 -0.015084894 0.0044429805 -0.045302387
0000c0 f2 38 92 bd e5 a2 8a 3c 93 d4 83 bd 9b 80 cb bd
       -0.07139768 0.016923377 -0.0643703 -0.09936639
0000d0 b3 fc e0 bd 9c ee c6 3d 8b 4e 8e 3c a4 c3 e5 bd
       -0.109856986 0.0971348 0.017371437 -0.11218956
0000e0 93 75 ab 3d 6c 9a da 3c af 55 8e 3d f8 63 cb bd
       0.08372035 0.026684962 0.069499366 -0.09931177
0000f0 f9 b8 ae bd 43 bb bf bc 53 ab 72 bd 8c a7 16 be
       -0.085313745 -0.023404723 -0.05924542 -0.14712352
000100 1b c3 cb 3d 35 8b 23 bd 06 46 bb 3d ba d2 7a bd
       0.09949323 -0.03992768 0.09144215 -0.06123612
000110 18 70 fb bc 11 4f 88 3d 63 30 1c 3d c2 00 0b 3e
       -0.030693099 0.06655706 0.038132083 0.13574508
000120 a2 af 17 3e fa 94 65 3e ce 61 b2 ba ae bd 1c 3e
       0.14813092 0.22420111 -0.001360947 0.15306732
000130 ad 1b 1e 3e d5 ad 15 be e7 87 8c bd 9b 47 99 3d
       0.15440245 -0.14617093 -0.06861859 0.07484361
000140 da 7d 24 3d 51 34 f2 bc e8 62 d7 3d 39 9a 06 bd
       0.040159084 -0.029565962 0.10516912 -0.032861922
000150 42 ad 59 3d 19 eb 19 3d 20 7b 49 3c f3 d6 e7 bd
       0.053143747 0.037577722 0.012297422 -0.11320295
000160 23 19 8b bd 85 a0 a2 3d ec c2 b1 bd 33 13 26 bd
       -0.06791904 0.07940773 -0.086797565 -0.040545654
000170 be 4b 1e bc 1f 8e 8a 3d eb 7c 97 3d 14 07 07 be
       -0.009661613 0.06765389 0.07396873 -0.13186294
000180 14 b3 38 bd 5c 05 b6 bb 89 99 8a 3d a8 04 db 3c
       -0.045092657 -0.005554838 0.06767566 0.026735619
000190 c9 32 31 be f5 e9 89 bb bc 64 92 bd 29 0b 82 bd
       -0.17304529 -0.004208798 -0.0714812 -0.06349785
0001a0 37 c9 03 be 44 8b 3c 3d 51 ec 8c 3d de 21 6c 3c
       -0.12869726 0.04603125 0.06881011 0.014412371
0001b0 f4 a8 0d be 90 74 76 bc c5 da 5d bd 75 51 df bc
       -0.13833982 -0.015042439 -0.054163713 -0.027260521
0001c0 6c 94 84 bd b8 0c 36 be a8 bc 24 bd c9 8a 7b bd
       -0.06473622 -0.1777829 -0.04021898 -0.061411653
0001d0 55 6d 9b bd ab 38 96 bd a1 c5 c6 bc 29 e8 37 be
       -0.07589213 -0.07335027 -0.024264159 -0.17959656
0001e0 cf b6 15 be 8b 5d 1b be f0 0e 07 3c 52 d5 a9 3d
       -0.14620517 -0.15172403 0.0082433075 0.08292641
0001f0 5c c4 84 bd a9 67 6a bd 1f a5 39 be 8e ff 09 3c
       -0.06482765 -0.057227764 -0.18129395 0.008422745
000200 d5 7d c0 bd 5c b0 c3 3b 4b 35 ad bd fd 95 5e bc
       -0.093990006 0.0059719514 -0.084574305 -0.013585565
000210 da 03 d3 bd 3f a0 5a bd 97 d4 73 bd 78 49 6b 3d
       -0.10303469 -0.05337548 -0.059528913 0.057443112
000220 2a 4b b5 3c 8d b3 49 bd b4 45 e7 b8 ff 88 c2 bd
       0.022130568 -0.0492435 -0.000110279216 -0.09498786
000230 ef 5b 16 3d 81 f4 e6 bd e0 05 ee bc 7f 80 20 3d
       0.03670877 -0.11277104 -0.029055536 0.039185043
000240 60 5c 29 be 68 b0 8b bd 57 3b 65 bd 77 f9 0e 3d
       -0.16539145 -0.06820756 -0.055964794 0.034905877
000250 bd c8 c3 3d 49 d1 98 3d 8c 27 a5 3d e9 87 44 3d
       0.09559772 0.07461793 0.080641836 0.047981177
000260 33 e6 16 bc b6 f6 e3 bd 3b 98 30 be 0f 21 fa bb
       -0.009210157 -0.11131041 -0.17245571 -0.0076333354
000270 b9 d0 54 3c b9 09 a2 bd 92 d8 27 3e 15 6d ec 3d
       0.0129892165 -0.07912011 0.16391209 0.11544243
000280 81 22 5f 3e af 56 98 bd ed 37 9d bd b9 f4 cd bd
       0.21790506 -0.074384086 -0.076766826 -0.10056443
000290 5a c3 1c bc fd 52 c0 bd b9 b2 3b bd f6 3f e3 3d
       -0.00956806 -0.09390829 -0.04582474 0.11096184
0002a0 fb cb 2d 3c 17 a9 cd bc 8b d1 62 bb 2c 31 87 bd
       0.010607715 -0.025105042 -0.003460976 -0.06601176
0002b0 a8 b1 aa bd be 7a f4 bd 0d c4 c3 3c 99 ed 1b bd
       -0.083346665 -0.11937474 0.023897195 -0.038068388
0002c0 ce 16 53 3d 2e 67 8d bb 90 84 03 3b 32 84 e0 bc
       0.05153542 -0.0043152785 0.0020068027 -0.027406786
0002d0 f3 47 67 bc 54 ae 82 bd 1e c6 47 3d 1d da 1a bd
       -0.014116275 -0.06380907 0.048772924 -0.037805665
0002e0 ea b6 48 bc d5 22 84 bc 4c 82 cd bc 2c 9c 0a bd
       -0.012250641 -0.01612989 -0.025086544 -0.033840343
0002f0 26 f3 6f bc 76 ad 51 3d e0 e3 01 bd bb 15 32 bd
       -0.014645373 0.051190816 -0.03171146 -0.043477755
000300 4d f1 5b 3d 5d 3f 00 be ec 56 57 3d 21 6f d1 bd
       0.05369692 -0.12524171 0.05257313 -0.10226274
000310 c1 39 ca 3d 98 e2 85 bd 09 f1 0b 3d 84 46 58 bd
       0.09874297 -0.0653736 0.034165416 -0.052801624
000320 ea 17 40 3d 46 68 9e bd e7 94 98 bd 82 15 25 3e
       0.046897806 -0.07734732 -0.07450276 0.16121486
000330 19 fd 90 bd b8 1b 88 bc 77 5c 1a 3e c3 41 21 3e
       -0.070795245 -0.01661478 0.15074335 0.15747742
000340 2a c7 3d 3d f1 ce 5a 3b cf f9 9a bd c7 0b 87 3d
       0.046332516 0.0033387507 -0.075671785 0.06594043
000350 6a 68 4b bc cb 0e c9 bc d2 cd 04 3e 64 d5 dd 3b
       -0.012415031 -0.024543187 0.12969139 0.006769823
000360 43 1f a3 3d 18 f9 86 3d 2a 8c 07 3e e7 e4 d2 3d
       0.07964947 0.065904796 0.13237062 0.10297566
000370 0f fc c6 bb ee a2 83 3b 60 4f f2 3d d0 5c af 3c
       -0.006072528 0.0040172255 0.11831546 0.021406561
000380 2d 01 17 bd 15 04 25 3e d8 d7 46 bb 8c ed 96 3d
       -0.036866356 0.16114838 -0.0030341055 0.07369527
000390 b6 ab 90 bd 78 fd b2 3d 0e 32 07 3e 1e e6 cb ba
       -0.07064001 0.087397516 0.13202688 -0.0015556251
0003a0 0f 55 97 bb 32 66 53 3c ff e7 da bd b4 4d 10 bd
       -0.004618294 0.012902783 -0.10688781 -0.035230353
0003b0 e9 fd 3f bd c5 a3 da 3d 9e 76 5e bd 24 72 85 bd
       -0.046873007 0.10675768 -0.05431234 -0.06515911
0003c0 97 8c d5 bc c4 fa 10 3e 1b 3e a7 bc 74 e1 a0 bd
       -0.026068015 0.1415816 -0.020415356 -0.07855502
0003d0 22 e9 00 3e ef 57 ba bd 02 62 7e bd 4a 3a 9f 3d
       0.12588933 -0.09098803 -0.062105186 0.0777479
0003e0 23 a0 9d bd 48 e8 9c 3d 8c 1f f2 bd 1a 2f ee bb
       -0.07696559 0.07661492 -0.11822423 -0.0072687985
0003f0 6f 01 fa 3d bf 83 e7 3c 56 1d f2 bb 3a c0 cc 3d
       0.12207305 0.028261064 -0.007388751 0.09997602

conv1.bias f4 [16]
000000 28 ce c0 bd 0a 42 96 3d ac 32 bf 3d c0 1a b2 bd
       -0.09414321 0.07336815 0.09335837 -0.086965084
000010 26 b5 67 bd 33 66 4b bd aa 05 1d be b8 57 ed bc
       -0.05656924 -0.04965801 -0.15334192 -0.028972492
000020 1f 7f 2c 3c 5e 78 3e 3c 55 67 0b 3e 4e 4f 82 bd
       0.010528355 0.011625377 0.13613637 -0.063627824
000030 8e 60 06 3d 4a 26 af b8 8f 93 62 bd d0 db c9 bc
       0.032806925 -8.351782e-05 -0.055316504 -0.024640948

bn.weight f4 [16]
000000 1b 6a 7d 3f 95 d8 7c 3f 0c 00 7e 3f 7e f1 79 3f
       0.9899003 0.9876798 0.9921882 0.9763411
000010 f4 2a 7d 3f de 98 77 3f ab b6 6b 3f 1d f9 6e 3f
       0.98893666 0.9671763 0.92075604 0.93348867
000020 bc eb 5d 3f 0a 18 80 3f 3a d9 6b 3f 2e 3b 77 3f
       0.8668783 1.0007336 0.92128336 0.96574676
000030 03 48 6a 3f 65 14 7a 3f c7 c9 81 3f 00 7b 7f 3f
       0.9151613 0.9768737 1.0139703 0.9979706

bn.bias f4 [16]
000000 9b e7 f6 3c 15 69 cd 3d 0f 14 a1 3b 42 27 76 3d
       0.030139735 0.100298084 0.0049157212 0.060096033
000010 f2 ec f2 3c c5 fb 26 3c 31 09 50 bd 4d 8d 8c 3d
       0.029654 0.0101918625 -0.050790016 0.068628885
000020 73 00 d5 3b c1 a4 83 3d a2 ce 0d bd 6f 0f c6 3d
       0.0065002977 0.06427909 -0.03462089 0.096709125
000030 a7 dc 94 3d fd 30 bb 3b 3f ed 11 3d ef 72 c3 3d
       0.072686486 0.005712627 0.035626646 0.09543406

bn.running_mean f4 [16]
000000 f8 a0 cc bd 02 d3 9f 3d b0 2f 4a 3d 0f 0a c1 bd
       -0.0999164 0.078039184 0.049361885 -0.09425747
000010 4d 98 0d bd ba 3d 03 bd 1b 7b 26 be 30 e6 0b bd
       -0.034569073 -0.03204129 -0.16257899 -0.03415507
000020 90 18 bb 3b 93 09 6b 3c 96 60 06 3e 60 e4 75 bd
       0.005709715 0.014345544 0.13122782 -0.06003225
000030 77 27 bf 3c 43 9b 96 3c b5 15 57 bd 9b 5e a2 bc
       0.023334248 0.018384581 -0.052510936 -0.019820502

bn.running_var f4 [16]
000000 d9 ff e6 39 66 8c fe 39 81 c8 39 3c 78 83 1c 3a
       0.0004405964 0.0004855126 0.011339308 0.0005970518
000010 8b 99 4a 3b cf 97 0e 3b 3d a2 79 3a 25 34 2e 3a
       0.0030914273 0.0021757965 0.00095227716 0.00066453434
000020 d0 4d d4 39 43 39 fa 39 33 32 91 39 f9 a8 75 39
       0.00040493766 0.0004772638 0.00027693957 0.00023427968
000030 bb 27 9c 3a c0 79 18 3b 05 73 cd 39 b3 e2 8d 3a
       0.0011913696 0.0023265928 0.00039186343 0.0010825008

conv2_x.0.conv1.weight f4 [32, 16, 3, 3]
000000 82 6c a6 bd 8f b8 16 bd 35 9a 42 3d ed d1 13 bd
       -0.08126165 -0.036797103 0.047510345 -0.036088873
000010 89 55 e1 3c cf 9e f7 bc 2e b0 97 bd ef 57 1e bd
       0.027506607 -0.030227093 -0.074066505 -0.03865808
000020 2c 90 0d 3d 7b 51 a2 3d 65 52 0c bd e4 5f 95 bc
       0.03456132 0.079256974 -0.034258265 -0.0182342
000030 6c 12 a3 3d 7c 74 bd bc dc 4c 18 bd c3 71 75 3d
       0.07962498 -0.023126833 -0.037182674 0.059922945
000040 b2 de 1c 3d 2e ca db 3c 00 41 fa 3c ef e9 7a 3c
       0.038298316 0.026829805 0.030548573 0.015314563
000050 60 e4 0f 3d 7d 2a 1c 3d c6 64 43 3c 48 fc dc 3c
       0.035129905 0.038126457 0.011925882 0.026975766
000060 ac e1 78 ba 2d be 4b bc b0 0b 63 3c 86 34 94 3d
       -0.0009494077 -0.012435478 0.013857767 0.072365806
000070 61 61 8a 3b cc 08 83 3d 18 18 2a 3d 6b de e7 3b
       0.0042230343 0.06398162 0.041526884 0.007076075
000080 0e 1a 8e 3d 46 71 9f 3d 9b 7b 2b 3d b8 f7 8f 3c
       0.06938563 0.07785277 0.041865926 0.017574176
000090 db d6 48 bd c6 33 98 3c 90 7d 28 3d 1b c6 95 3d
       -0.049033027 0.018579375 0.04113537 0.07313176
0000a0 94 8f 86 bd 9b dd 8f bd 54 8a 42 3c 48 0e 45 3d
       -0.06570354 -0.0702469 0.0118738 0.048109323
0000b0 c7 ec a2 3d 67 56 91 3c 68 02 ac 3d 14 7c ea 3c
       0.07955318 0.017741395 0.083988965 0.028623618
0000c0 5b 3a dc ba 7b 66 09 bd 49 42 74 3d af 4e 7d 3d
       -0.0016802059 -0.033545 0.059633527 0.061842617
0000d0 7f 94 91 3d 54 16 d2 bc b4 39 82 3d 10 85 67 3d
       0.071084015 -0.025645413 0.06358662 0.056523383
0000e0 a3 2b 18 3c 86 a3 81 3c 9c 35 d8 3a 19 86 27 bd
       0.009287748 0.015825044 0.0016495469 -0.04089937
0000f0 7d f7 65 3d e0 98 f4 bb 9d 8e 84 3d f8 de 51 3c
       0.056144226 -0.007464513 0.06472514 0.012809508
000100 0e 4e 92 bc df 70 95 3d 58 af 8b bd 85 3a 48 3c
       -0.017859485 0.07296919 -0.068205535 0.012220983
000110 92 e1 2a bb c3 31 3e bd 50 ec ac 3d 22 39 ab 3d
       -0.0026074392 -0.046434175 0.084435105 0.083605066
000120 98 2e a1 3c c4 e4 a9 ba f7 cb 45 3c a1 3d 37 bd
       0.019675538 -0.0012961854 0.012072555 -0.04473651
000130 3d 5a e3 bc 3e d0 77 bc 6c 6f a5 3b dd e7 85 3c
       -0.02775299 -0.015125332 0.005048683 0.016345913
000140 e7 a9 90 3d 04 96 c3 3d 6a 5c 15 3d 1c e6 46 bc
       0.07063656 0.095500976 0.036465086 -0.012139823
000150 8b 55 35 bc a5 a2 57 3c d9 ff 0f 3b 6f 5c fb 3c
       -0.011067758 0.013161336 0.0021972565 0.030683724
000160 25 d1 84 bc 00 f6 d6 3c ba ed 3e 3d fc 42 76 3d
       -0.01621301 0.026240349 0.046613432 0.060122475
000170 d7 f1 7c bb 84 e8 e5 bc 49 36 11 bd 2c 52 54 bc
       -0.0038596296 -0.028064974 -0.03545216 -0.012959044
000180 31 37 87 3c d5 df d5 bc 5c d7 76 3d d4 2e 82 3d
       0.01650581 -0.026107708 0.060263976 0.06356588
000190 51 ac 8d 3d 7b 57 d2 bb dc 44 98 3d c8 66 ba 3d
       0.06917632 -0.00641912 0.07435009 0.09101635
0001a0 28 48 c8 3d f9 53 1d bc cd 18 78 3c 95 fb d8 bb
       0.09779388 -0.00960254 0.015142632 -0.006621788
0001b0 2c 10 80 39 01 eb d2 3b 3b 3d 01 be 88 b8 c5 bc
       0.00024426111 0.006436706 -0.12621014 -0.024135843
0001c0 a7 39 e2 bb 02 bd 4b bd 53 c2 80 3d b6 1b ce 3c
       -0.0069038454 -0.0497408 0.062870644 0.025159698
0001d0 2e 7f a9 ba 18 89 40 bd 3c fe 85 bd 8a 39 a4 3c
       -0.0012931579 -0.047005743 -0.06542632 0.020046968
0001e0 51 b9 2c 3d d8 e8 73 bd 3d bb 01 3c e9 38 90 3d
       0.04216892 -0.05954823 0.007918176 0.07042105
0001f0 57 d8 8d bb 30 c6 64 bd 0d 2f cf bc 16 c7 34 bc
       -0.0043287682 -0.05585307 -0.02529099 -0.011033794
000200 7c f7 9e bd f8 9e 42 bd 81 d3 3c bd 03 34 a0 bc
       -0.07762048 -0.047514886 -0.046100143 -0.019556051
000210 3c df 84 b9 9d 31 ae bd 35 f0 8b 3d 59 c9 9f bc
       -0.00025343325 -0.08505557 0.06832925 -0.01950519
000220 02 8d b4 3c 53 ae 55 3d 82 58 db bc 6b 30 52 3d
       0.022039894 0.0521682 -0.026775602 0.051315706
000230 f7 c9 cd bc 25 c8 4c 3d 9a 70 92 3d c3 75 b0 3d
       -0.025120718 0.04999556 0.07150383 0.08616211
000240 ec f7 19 b9 85 59 37 bc 1b b5 ae bc 0b 66 2f bd
       -0.00014683575 -0.011190777 -0.021326592 -0.042821925
000250 86 c5 c3 3c 81 83 83 bd 79 10 c5 3d 3a 6e d3 3d
       0.023897897 -0.06421567 0.096222825 0.103237584
000260 df c9 4b 3d d3 c3 ce bd 2f ab 27 3d 8c 40 39 3d
       0.049753066 -0.10095944 0.040934738 0.045227572
000270 dc 41 a2 ba 82 2f 88 3d 30 fb c3 3d 6f f3 57 bb
       -0.0012379247 0.066496864 0.095693946 -0.0032951494
000280 13 e5 e9 3d 2c db a8 3d a7 e4 15 3d b1 43 ed bc
       0.114206456 0.08244929 0.036595013 -0.028962942
000290 84 d9 47 3d 82 a9 8a 3d 0a 17 23 bd 6e f8 6f 3d
       0.048791423 0.06770612 -0.039816894 0.05858653
0002a0 b2 9b 1a 3c 07 86 b2 bc a8 3d 25 3d 13 55 77 3c
       0.009436535 -0.021792425 0.040342003 0.015095967
0002b0 09 9b 47 3d 76 fb ae 3c b8 a5 79 bd d1 3c f9 3c
       0.048731837 0.02136014 -0.060949057 0.030424507
0002c0 8a bc c7 39 65 42 28 3d 9f 46 3f 3d 42 2f ba 3b
       0.0003809671 0.041078944 0.04669821 0.005681903
0002d0 65 d5 bc 3c b0 b1 db 3b 9d 4d e7 3c d6 0d 50 3d
       0.023050973 0.0067045316 0.028235251 0.050794445
0002e0 f5 1c ec bc b6 f8 6d 3d 1f 01 40 bd d6 62 97 3c
       -0.028822402 0.058098517 -0.04687607 0.018479746
0002f0 25 6e 31 3c 46 22 a4 bd 1a f1 87 bd 7b 24 15 3d
       0.010829483 -0.0801435 -0.06637783 0.036411744
000300 bc cd 90 3c db bf 95 3d 9e 0b a7 3d 4f 25 bb 3c
       0.017676227 0.07311984 0.08156513 0.022844939
000310 99 02 a3 3b e0 99 44 3d 77 90 97 bd 04 a0 11 bc
       0.004974675 0.04799831 -0.07400601 -0.008888248
000320 55 72 22 3d 85 4d 33 bd f7 79 8a 3a 94 90 86 bc
       0.039659817 -0.0437751 0.0010564913 -0.016426362
000330 07 8e 3f 3d e0 80 89 bc 00 b9 9a bd 39 c5 54 bd
       0.046766307 -0.016785085 -0.07554817 -0.0519459
000340 f7 40 d8 bc 07 7c 97 3d dc 45 30 bb 02 4a 75 3d
       -0.026398165 0.07396703 -0.0026897108 0.059885032
000350 b9 cc a1 3d cf 6d d0 3c 90 8a 94 3d 07 ca bd 3c
       0.07900376 0.025442986 0.07252991 0.023167623
000360 f4 c8 96 bd 7f 70 1f bc 4c 63 c5 bc d1 b6 a6 3c
       -0.073625475 -0.009731411 -0.0240952 0.020350846
000370 27 fc 1c bd 48 6b 97 bd 85 2d 68 bd d5 f9 89 3d
       -0.03832641 -0.07393509 -0.056684036 0.06737105
000380 bc c7 0f 3d e2 4b 5e bd 51 8d 02 3b fa c0 87 bd
       0.03510259 -0.054271586 0.0019920657 -0.06628604
000390 8e ff a6 bd 8e 4d ae 3d 4a c8 21 bd 78 40 3b bd
       -0.08154212 0.08510886 -0.03949765 -0.04571578
0003a0 ae a5 04 3c c2 4b b4 3c 97 b1 1f 3d 82 7e 2e bd
       0.008096142 0.02200878 0.038987722 -0.042601116
0003b0 ee 30 6a bd 11 b2 bc 3d 17 13 84 3c 7e c9 0d 3c
       -0.05717557 0.09213651 0.016122384 0.0086539965
0003c0 fd 98 a8 3c a0 b2 1e bc 7c 8d dd bd f2 3c 35 3d
       0.020580763 -0.009686142 -0.10818002 0.044247575
0003d0 0a d1 a8 bb 83 4a b5 bc 49 24 1c 3c 6a e6 d3 3d
       -0.0051518725 -0.022130257 0.009530135 0.10346682
0003e0 4d ea 4f bc 47 26 96 bb b1 2c 32 bc 14 83 bc 3d
       -0.012690139 -0.0045821997 -0.010874913 0.09204689
0003f0 6f 21 68 bd 07 0c b7 3b ab 02 65 bc e5 83 13 bc
       -0.05667251 0.0055861506 -0.013977687 -0.009003614

conv2_x.0.bn1.weight f4 [16]
000000 9b 0b 7e 3f 73 8d 81 3f a3 48 78 3f 1d 66 86 3f
       0.9923646 1.0121292 0.96985835 1.0499913
000010 45 f4 78 3f 6a 9d 77 3f bc c9 74 3f d0 09 77 3f
       0.97247726 0.9672457 0.9562032 0.9649935
000020 3b 33 70 3f 45 94 78 3f 8d 5f 75 3f 04 60 7d 3f
       0.9382817 0.9710124 0.95848924 0.98974633
000030 4e 2c 87 3f ed c7 68 3f 1e 50 80 3f 2d 94 79 3f
       1.0560396 0.9093006 1.002445 0.97491723

conv2_x.0.bn1.bias f4 [16]
000000 5f 2d a3 3d 15 2c 8a 3d 6b 5b 6e bd 5c a2 fc 3d
       0.07967638 0.06746689 -0.05819265 0.12335655
000010 ce c7 5b bd 27 6e 1a 3d ab 49 bd 3d 37 43 37 3e
       -0.053657345 0.037702706 0.09242567 0.17896734
000020 a9 6e 22 3e 76 25 d9 3d 2f bb e0 3d 95 04 00 3b
       0.15862526 0.10602848 0.109732024 0.001953398
000030 7a 4f 03 3e b8 cf fe bd ce b9 72 3d 5a 43 ba 3d
       0.12823287 -0.12441963 0.05925923 0.090948775

conv2_x.0.bn1.running_mean f4 [16]
000000 66 e9 cb 3e a9 05 0c 3f 4f 07 6c 3e 8f f3 d0 3e
       0.39826506 0.54696137 0.23049663 0.4081082
000010 2e 21 a0 3e aa 0f a3 3e b7 a8 8e 3e 83 c0 dc 3e
       0.31275314 0.31847888 0.27863094 0.43115625
000020 c6 6d b9 3e 68 aa f8 3e d3 08 ae 3e b8 94 0c 3f
       0.36216563 0.4856751 0.33991107 0.54914427
000030 6e 27 bf 3e 2a 1a a3 3e e8 d8 fe 3e a7 e7 f9 3e
       0.3733477 0.318559 0.4977486 0.4880955

conv2_x.0.bn1.running_var f4 [16]
000000 fd 23 ac 3e ee f5 41 40 3c 85 69 3c 96 5f b3 3e
       0.33621207 3.0306354 0.014252957 0.35033864
000010 71 cc e6 3f 48 07 f2 3f 10 01 9b 3e 25 aa 38 3f
       1.803114 1.8908472 0.30274248 0.7213462
000020 21 14 00 3f 54 c4 18 40 6d 16 aa 3e 8c ef 31 40
       0.50030714 2.386983 0.33220235 2.7802458
000030 56 da aa 3e 1d b3 f6 3f 47 32 37 40 02 a5 1f 40
       0.33369702 1.9273411 2.8624437 2.4944463

conv2_x.0.conv2.weight f4 [32, 32, 3, 3]
000000 52 84 1c 3c 6a fe c5 3c 50 93 bf bc 9a a0 38 bc
       0.009553032 0.024169166 -0.023385674 -0.011268759
000010 87 41 7b 3d 4d 7b 29 bd c1 5b 93 bc 5d c0 86 bc
       0.06134179 -0.041377354 -0.017988088 -0.016449148
000020 74 69 71 3c 2d 54 4b bd 75 49 bc 3a 39 fc b6 bc
       0.014734615 -0.049640823 0.0014365154 -0.022337066
000030 d9 41 2c 3d 2f 68 91 3d 12 5b ad bc 12 58 1a bd
       0.042054985 0.070999496 -0.02116159 -0.037681647
000040 2e f2 85 3c 02 3d 8d 3c 2a bd e6 bc 3c 5b e9 bc
       0.016350832 0.017241005 -0.028166372 -0.028485887
000050 04 c7 7e bd 10 d7 a3 bc c0 8e 20 3d 78 1a 89 bc
       -0.062201515 -0.02000001 0.039198637 -0.016736254
000060 24 90 b1 3d cf 02 a2 3d a5 09 0b bc a6 b9 cf 3b
       0.08670071 0.07910692 -0.008486186 0.0063392697
000070 d8 0a 17 bd d8 3c c0 3c 22 37 83 3c b0 9a 21 bc
       -0.036875576 0.023466513 0.0160175 -0.0098635405
000080 7f 59 ca bc d4 14 6b 3b 6f da 0d 3d 6d 15 41 3c
       -0.024700878 0.0035870569 0.034632143 0.011784893
000090 43 de 68 3d 95 34 04 bc 10 e2 cc bb be 9e ae bd
       0.05685259 -0.008069177 -0.0062525347 -0.085263714
0000a0 d6 08 8e bd b9 7c 62 bd 4a 31 92 bc 11 7e a5 bb
       -0.06935279 -0.055294726 -0.017845768 -0.0050504287
0000b0 43 80 6b bd 04 7b e9 bc e3 eb e1 3c 6f a7 b8 bc
       -0.057495367 -0.028501041 0.0275783 -0.022540776
0000c0 5d 44 b0 3b 3f 1d 8b 3d a1 47 73 bd 3f 3d d1 bb
       0.0053792433 0.067926876 -0.059394483 -0.006385475
0000d0 cb 16 01 bc dd 09 1e bd c0 1e e9 bb 83 18 af 3d
       -0.007878969 -0.038583625 -0.0071142614 0.08549597
0000e0 c5 67 93 3d 1e bb 15 3d 8b b9 20 3d e3 36 b8 3c
       0.07197527 0.036555402 0.039239448 0.02248711
0000f0 a0 70 af bd 3a 50 fb 3b c1 c1 a0 3b 1f 1a 15 bc
       -0.085664034 0.007669476 0.0049059098 -0.009100466
000100 b3 6a 2a 3c 69 66 f0 3c bd ab 8e 3c 1b c0 8a 3d
       0.010401416 0.029345708 0.017415876 0.067749225
000110 c2 a7 8a bc 14 00 6a 3d 5c b5 02 3c dc 6c 62 3c
       -0.016925696 0.05712898 0.00797781 0.013819899
000120 41 aa 43 3d 54 21 fe bb e2 fc 15 bd a4 d9 71 3d
       0.04776979 -0.007755438 -0.03661812 0.05904545
000130 a7 a8 18 3d 1a dc d8 3b 88 ff 3a 3d 48 38 6c 3d
       0.037270214 0.006618035 0.04565385 0.05767086
000140 63 67 04 3e 82 7f d3 3c cc e6 8a 3d e0 31 a0 3d
       0.12930064 0.025817636 0.06782302 0.07822013
000150 e1 29 43 3d a8 8b 88 3d b6 16 37 3d e0 6e 46 bd
       0.04764736 0.06667262 0.044699393 -0.048445582
000160 6a 38 1f 3c 86 14 aa 3b 75 f1 93 3d e0 36 fa 3c
       0.00971804 0.005190435 0.07223789 0.030543745
000170 45 c7 99 3c c2 fa e8 3c e2 6e 2b 3d 74 9d ff 3c
       0.018771777 0.028439883 0.041853793 0.03120301
000180 cb 7a 2a 3d f3 da 9d 3c 67 d9 4d 3c 6b c2 32 bd
       0.04162101 0.019269442 0.01256404 -0.043642443
000190 51 e7 43 3b 8f 93 62 bd c3 9f ad 3c f2 e3 cb 3b
       0.0029892514 -0.055316504 0.021194344 0.0062222416
0001a0 17 d4 72 3d 75 45 97 3c 08 aa a3 3c 4a 41 21 3d
       0.059284296 0.018465737 0.019978538 0.039368905
0001b0 94 f1 a7 bb f1 15 85 bd 93 2f c1 3c 62 49 29 3c
       -0.005125234 -0.064983256 0.023582255 0.010332437
0001c0 3d 35 81 3d e2 da 48 3b 05 61 99 3d 7f af 3e 3d
       0.063089825 0.0030648042 0.07489208 0.046554085
0001d0 b1 e0 1b bc fd 91 aa 3a d6 69 41 3d c4 26 48 bc
       -0.00951402 0.0013013479 0.047220074 -0.012216274
0001e0 0a 71 6e 3d 04 ec 73 3d b8 da 74 3d a7 1b 52 3d
       0.05821327 0.059551254 0.0597789 0.051295903
0001f0 32 ee 6f 3b 9d f6 3c bd ea 0f 81 bd f5 07 65 3d
       0.0036610481 -0.046133626 -0.063018635 0.05591579
000200 9a cd 20 bd 41 b7 31 bd 79 4f 81 3b 72 40 cd bc
       -0.039258577 -0.043387655 0.0039462415 -0.025055144
000210 1e 34 1b bc 6f e4 17 bd d6 af 41 3c 5e fb df 3b
       -0.009472875 -0.037083086 0.011821708 0.006835385
000220 ac 73 43 bb 01 c3 d9 bc 10 df 29 3d 46 fe 2e bb
       -0.0029823584 -0.026582243 0.041472495 -0.0026701852
000230 d7 b0 8f bd 6d a2 29 3d 34 e1 8d bb 2a be 47 3b
       -0.070161514 0.041414667 -0.004329825 0.0030478337
000240 45 3f 9a bc f2 aa 23 3d 2b e0 ce bc 79 d2 e9 bc
       -0.018828997 0.039957948 -0.025253376 -0.028542744
000250 b6 af 3d bd d3 ae c7 3c 16 bd 5e bd ea e5 21 bd
       -0.04631015 0.024375355 -0.054379545 -0.039525904
000260 9e 38 96 bd 36 e2 80 3d 28 6a 59 3d 43 88 be 3c
       -0.073350176 0.06293146 0.053079754 0.023258334
000270 03 a9 0d 3c 1f 54 1f bd 85 d8 0c bd 72 bb 1a bd
       0.008646253 -0.038898584 -0.034386177 -0.037776418
000280 61 78 f6 bc a2 a4 85 3b a3 e8 be bd 1d 67 9a bd
       -0.030086698 0.0040784637 -0.09321716 -0.075391985
000290 3d 2a 84 3b 6b 59 9e 3a 49 ce 54 3c 8e e4 37 bd
       0.0040333555 0.0012081092 0.012988635 -0.0448957
0002a0 d6 05 44 bd 2d 35 37 3d 34 9a 39 bd ce 47 04 3c
       -0.047857128 0.044728447 -0.045313075 0.00807376
0002b0 43 e6 1e 3d bd 81 ff bc 98 42 36 3d 26 f5 16 bd
       0.038793813 -0.031189794 0.044497102 -0.036854886
0002c0 29 7c f9 bc b2 0a 11 3d 00 65 1c 3d 11 7f 1c 3c
       -0.030454712 0.03541059 0.03818226 0.009551779
0002d0 58 4e 26 3d 7d ca bd bc 4e 2c 6f bc 20 a7 4b 3d
       0.04060206 -0.023167843 -0.014597965 0.04971993
0002e0 fd 8d 87 bc 92 af a0 3d 20 08 66 3b e1 2d f6 bb
       -0.016547197 0.078459874 0.0035100058 -0.0075127934
0002f0 68 50 9f 3d 85 85 b5 bc 18 30 92 3c b1 b9 05 bd
       0.07779008 -0.022158394 0.017845199 -0.032647792
000300 1a 83 7d 3a 54 d5 47 3c fe f2 88 bd 46 88 56 bc
       0.000967072 0.0121968575 -0.06686972 -0.013094014
000310 7c eb e3 bc e7 28 30 bd c2 df 90 bb 41 ef ee 3c
       -0.027822249 -0.043007758 -0.0044212053 0.02916682
000320 63 4b 74 bc d3 67 88 3d 64 4a 42 3d f3 da 66 3c
       -0.014910552 0.06660428 0.047434226 0.0140902875
000330 ff fb 78 bd d4 63 99 bd 61 19 c6 bb 54 01 54 3d
       -0.060787197 -0.07489744 -0.006045506 0.05175908
000340 8a 3b 5b 3d 80 0e 73 bc cf a7 4b 3d 31 69 39 3d
       0.053523578 -0.014835 0.04972058 0.045266334
000350 6b 72 f3 3b 0f 1e 5c 3c 33 8e f5 bb 2e 1a 06 3b
       0.007429411 0.013434901 -0.007493758 0.0020462382
000360 bb be f3 3c a0 d9 28 3d 25 8d 36 bc 35 5e 29 bc
       0.029754033 0.04122317 -0.01114205 -0.010337402
000370 f4 00 c0 bc 17 2d 84 3d 3c 08 b1 3b 47 68 95 bd
       -0.023437954 0.06453913 0.005402593 -0.0729528
000380 d7 f1 3a bc f3 a9 3f 3d 42 b6 84 bd f2 45 a6 3a
       -0.011410198 0.046792936 -0.064800754 0.001268564
000390 fe 96 a9 bc 9b 63 a9 3b 2c e1 d0 bc 97 17 10 3d
       -0.020701881 0.0051693446 -0.025497995 0.035178747
0003a0 e3 75 cb 3d 5e c8 88 3d 99 fb b4 bb c5 32 28 3d
       0.099345945 0.06678842 -0.005523157 0.041064043
0003b0 82 4c 32 bc 71 19 91 3d c4 49 42 3d d7 8c 8c bc
       -0.010882499 0.07084931 0.04743363 -0.017157001
0003c0 82 8c d1 bc e2 99 13 bc 12 05 b0 3d 5c 22 15 bc
       -0.025579695 -0.0090088565 0.08594717 -0.00910243
0003d0 72 4a 19 3b 10 ba 33 bd 52 ef 6d bd f0 9c 1c 3d
       0.002339032 -0.043878615 -0.05808956 0.038235605
0003e0 a6 2a 7b 3d f4 5d a6 bd eb 3d 43 ba 78 99 59 bd
       0.06131997 -0.08123389 -0.0007447886 -0.053124875
0003f0 9f 27 16 bc a2 bb a1 bc b9 1d 33 bc 99 d1 39 bb
       -0.00916472 -0.01974279 -0.010932379 -0.002835369

conv2_x.0.bn2.weight f4 [32]
000000 eb fc 60 3f 79 13 6a 3f 68 ac 83 3f 9e 73 7d 3f
       0.8788592 0.9143596 1.0286989 0.9900454
000010 85 64 79 3f bd 54 83 3f 74 71 81 3f 17 05 77 3f
       0.97419006 1.0260235 1.0112748 0.9649214
000020 d0 72 85 3f 37 de 6f 3f 4f b7 82 3f 5d 53 6f 3f
       1.0425663 0.9369845 1.0212191 0.9348658
000030 ae f1 7a 3f 4d 87 80 3f 6b aa 7b 3f 35 a4 83 3f
       0.98025024 1.004129 0.9830691 1.0284487
000040 d4 ae 71 3f 37 7d 79 3f 00 cf 7c 3f 4c 63 72 3f
       0.9440739 0.9745669 0.98753357 0.94682765
000050 dd 9b 7d 3f 10 6c 74 3f 35 90 79 3f b2 1f 75 3f
       0.99065953 0.9547739 0.9748567 0.9575149
000060 cb cb 71 3f 99 a4 86 3f 81 02 80 3f 51 24 6b 3f
       0.9445159 1.0518981 1.0000764 0.9185229
000070 a5 c1 80 3f 56 44 81 3f e6 88 80 3f f7 d4 82 3f
       1.0059096 1.009898 1.0041778 1.0221242

conv2_x.0.bn2.bias f4 [32]
000000 4b b5 93 bc cc a3 65 bd 51 7b c5 ba c7 a2 6f 3b
       -0.018030783 -0.056064412 -0.0015066658 0.0036565529
000010 64 c5 e6 3b ea 88 44 3c 79 07 59 bc 86 1b 61 bd
       0.0070425738 0.0119955335 -0.0132464105 -0.05495789
000020 33 bf cb 3c 3a db e5 bc 6b 90 cb 3c f3 38 8a bc
       0.024871444 -0.028058637 0.024849137 -0.016872859
000030 d6 40 2a bd 7d 31 2b bd 2b 8b 46 bc 16 41 2b 3d
       -0.04156574 -0.041795243 -0.012118141 0.041810118
000040 4e 40 44 bb 2b 48 dc bc c7 55 46 bd e0 33 b6 bc
       -0.0029945555 -0.026889881 -0.048421647 -0.022241533
000050 a4 95 07 bd c7 48 1c bd 27 ca 3a 3c 17 3c 43 bd
       -0.033101693 -0.038155343 0.011400736 -0.047664728
000060 d6 f4 86 bb ca e2 68 3d ce 77 48 bc e1 71 c7 3b
       -0.004118542 0.056856908 -0.012235595 0.0060865735
000070 a6 69 a6 bc df 02 79 3c 79 fb 33 3c 09 df 4a 3d
       -0.020314049 0.015198438 0.010985249 0.04952911

conv2_x.0.bn2.running_mean f4 [32]
000000 9a 1a a8 3e 83 26 a4 3e b7 e0 73 be 80 58 33 be
       0.32832795 0.32060632 -0.2381619 -0.17514229
000010 51 60 06 bc 30 01 84 be 88 e0 d7 bd 6c 4e 7b bd
       -0.008201675 -0.25782156 -0.10540873 -0.061354086
000020 01 fd 4d be 43 4d 29 be 9f df 9c be 14 be b6 3e
       -0.20116045 -0.1653338 -0.3063936 0.35691893
000030 93 ec 57 be 84 46 49 be 69 0b 3f be 0d 32 76 bd
       -0.2108634 -0.19655806 -0.18656696 -0.060106326
000040 be 99 a3 3e 69 89 6e be b6 ed 6f bd 83 f8 c0 bd
       0.31953233 -0.23294605 -0.05857631 -0.094224
000050 30 31 1b be 2b 55 ef 3d 22 78 b1 bd 77 9c 33 be
       -0.15155482 0.116861664 -0.08665492 -0.17540155
000060 03 47 13 3d 79 60 7f be 0a ce 22 be 60 83 b3 3e
       0.035956394 -0.24939145 -0.1589891 0.3506117
000070 1c 76 fd bd 82 22 3c be c5 2f f7 bd 19 39 20 bd
       -0.12376043 -0.18372539 -0.12069658 -0.039116953

conv2_x.0.bn2.running_var f4 [32]
000000 66 bc 8f 3f 4a 2c c0 3f 53 5f a6 3f e9 bc e6 3e
       1.122937 1.5013516 1.2997841 0.45066002
000010 b0 ff d4 3e 93 83 b0 3f 5f 9e da 3e 8c 36 5b 3e
       0.41601324 1.3790153 0.42698953 0.21407527
000020 55 31 69 3f 1e 50 e3 3e 8c 7a c4 3f 74 da cd 3f
       0.910909 0.44397062 1.5349898 1.6082292
000030 fc 0d a6 3e fd 3f 96 3e 8a 8a 89 3e 92 4c 17 3f
       0.32432544 0.29345694 0.2686351 0.5910121
000040 0e 33 95 3f 7a fd 81 3f c6 01 00 3f 69 1e ab 3e
       1.1656206 1.015548 0.50002706 0.3342164
000050 cd 26 15 3f d5 57 04 3f 8c df ea 3e df 05 1f 3f
       0.5826233 0.5169652 0.45873678 0.62118334
000060 d9 14 a6 3e 85 ae 85 3f 1b 81 1d 3f 96 6d 7b 3f
       0.3243778 1.0443884 0.61525124 0.9821409
000070 ad fd d4 3e f6 cc 9c 3f d3 bd 3b 3f 38 e5 ad 3e
       0.4159979 1.2250049 0.73336524 0.33963943

conv2_x.0.downsample.weight f4 [32, 16, 1, 1]
000000 a8 e5 33 3e 00 03 13 be a4 ae 44 3e 71 0b 00 be
       0.17568076 -0.14356613 0.19207245 -0.12504365
000010 c9 8b 06 3e 26 37 09 3e db 79 63 3e c7 01 4c bd
       0.13139261 0.13399944 0.22214453 -0.049806383
000020 79 fd b2 bd 72 3c 27 3e 47 3b 5c be db 32 99 bd
       -0.08739752 0.16331652 -0.21506988 -0.07480403
000030 54 75 e1 bd 93 bf 57 3e ae a1 97 3d 2e 18 25 3d
       -0.11008707 0.21069174 0.07403885 0.040306263
000040 90 6c ea 3d 3e 19 61 bd 77 e1 28 3e 38 04 26 be
       0.11446488 -0.054955713 0.16492258 -0.16212547
000050 2d 42 72 be 2b f2 5c bd 92 d8 83 bc f1 d2 02 be
       -0.23658057 -0.053941887 -0.01609448 -0.1277578
000060 5d 34 4a 3d 52 34 70 3e 87 7b 25 3e 4c c5 04 be
       0.049366344 0.23457459 0.16160403 -0.12965888
000070 31 b2 1f be f1 2e ee 3d c0 de b5 bc b8 10 8e bd
       -0.15595318 0.11630047 -0.022200942 -0.069367826
000080 72 23 42 3e 3e eb bb 3d 59 84 d3 bd 3d 7d 32 3e
       0.18958834 0.09175728 -0.10327978 0.17430587
000090 b3 03 21 be db b8 73 bd 2c a8 4c be 69 c4 86 bd
       -0.15724067 -0.059502464 -0.19986027 -0.06580431
0000a0 0e 46 19 bd 9a 27 db bd 77 1b 28 3e b8 2a 6d be
       -0.037420325 -0.10700913 0.16416727 -0.23160827
0000b0 fc df 14 3e ad d2 17 3d 1c 72 af bd 59 13 69 be
       0.14538568 0.03706615 -0.085666865 -0.22761287
0000c0 cf 11 f6 3d 95 d9 82 3c 95 81 62 3e 1f 27 ab 3d
       0.120151155 0.015972892 0.22119744 0.08357071
0000d0 02 4a 6c 3e 6e b5 fa 3d 09 fc 04 be a7 db 33 be
       0.23075107 0.12241636 -0.12986769 -0.1756426
0000e0 2d e6 23 3e 71 85 86 bd f8 e6 23 bc 97 f5 21 be
       0.16005774 -0.06568421 -0.010003798 -0.15816341
0000f0 d7 2f 9f bd 82 86 5a be db 2d 7e bd c3 ba 3a 3e
       -0.077727966 -0.21340373 -0.06205545 0.18235306
000100 fd 86 be 3d 60 dd 5f be 0f 37 65 bd 77 71 a6 3d
       0.09303091 -0.21861792 -0.05596071 0.081271105
000110 da 17 43 3e 09 aa 81 3d 22 38 c2 bd b6 b3 67 bc
       0.19052067 0.0633126 -0.09483363 -0.0141419675
000120 62 d2 4a 3e e9 39 0e 3e 43 fa c2 3d 76 29 bd 3d
       0.19806817 0.13889278 0.0952039 0.09236424
000130 87 48 03 3e 14 72 47 bd 85 0c 8d bd f3 64 42 3e
       0.12820636 -0.048692778 -0.068871535 0.18983822
000140 cc e8 51 be 0b 16 f1 bb fa b6 47 bd c7 a3 18 3d
       -0.20498961 -0.007357364 -0.048758484 0.037265565
000150 8a 87 3a 3e 0f de f5 bd 87 9c 4a 3e de a5 b6 bd
       0.18215767 -0.12005245 0.19786273 -0.089183554
000160 72 8d ab 3d f0 7f e2 bd 38 6e bd 3a 0c 34 21 3e
       0.08376588 -0.110595584 0.0014452403 0.1574251
000170 23 ec 0c be 7a 14 18 3e 66 19 92 bc df f6 f7 bd
       -0.13761954 0.14851561 -0.017834377 -0.12107634
000180 0d ad 5d be 4f f8 0f bd e9 80 c7 bd 46 74 02 be
       -0.21648045 -0.035148915 -0.097413845 -0.12739667
000190 98 5d 14 3d fe 83 d6 3d c6 33 cc bd f7 3e 52 3e
       0.03622207 0.10474394 -0.099708125 0.20531832
0001a0 8f a7 c9 bd 64 89 56 be c8 62 9f bd 3e f3 64 be
       -0.098464124 -0.20950848 -0.07782513 -0.22358415
0001b0 be 58 0b 3e ab dd 58 3d bb a6 89 bd c9 68 7b be
       0.13608071 0.052945774 -0.067212544 -0.24551691
0001c0 59 6d b5 39 75 09 55 3e 3b ed 3e 3e 7b 90 06 3e
       0.0003460448 0.20804389 0.18645184 0.13141052
0001d0 ec 38 44 3e b1 28 4c be 91 78 09 be fb fe 4e 3e
       0.19162339 -0.19937398 -0.13424899 0.20214455
0001e0 eb 51 8b bd 4b 9b 69 3e 01 6f 71 3e 90 2c 03 bd
       -0.06802734 0.22813146 0.23577501 -0.03202492
0001f0 96 56 5c be 0e f0 e5 bd 83 d1 46 3e b2 28 99 3d
       -0.21517405 -0.112274274 0.1941586 0.07478465
000200 cd 88 68 be b4 93 87 bd 15 8d ea bb 6e bb 56 be
       -0.22708435 -0.06619969 -0.0071579316 -0.20969936
000210 81 34 45 be 50 d9 34 be ca 1f 49 bd e7 18 c5 bb
       -0.1925831 -0.17661023 -0.049102582 -0.0060149315
000220 15 00 c1 3d ba 97 5b be 74 25 39 bd 9b 04 dc bd
       0.09423844 -0.21444598 -0.045201734 -0.10743066
000230 13 f3 bd bc 0a 5a 8a 3e 58 2c 6c be cc 00 bb 3d
       -0.023187196 0.2702182 -0.23063791 0.09131011
000240 12 21 59 be f6 b0 7c be c7 4a 48 3e 59 c6 ce bd
       -0.21204022 -0.2467688 0.19559775 -0.100964256
000250 63 9f 5b be 73 c1 49 be af 69 4c be aa 79 35 be
       -0.2144752 -0.19702701 -0.1996219 -0.17722192
000260 49 ee ba 3d bf 43 68 3e 33 1b 61 3e df ad 1b be
       0.091274805 0.22682093 0.21983032 -0.15203045
000270 03 df 41 be e4 49 d5 bd ee ea 4a 3e a0 b9 fa 3d
       -0.18932728 -0.10414484 0.19816181 0.122424364
000280 54 82 ce 3d dc 07 d3 3d fb b7 31 be 70 ec 2f be
       0.10083452 0.103042334 -0.17355339 -0.17180037
000290 28 3a 5c 3e 07 f6 4d 3e 3b 5d e5 bd 3c 31 cc bb
       0.2150656 0.20113383 -0.11199423 -0.006231455
0002a0 43 e4 2d 3e 81 1b 0f 3e ad 2b 7b bd 49 5e 00 bd
       0.16981606 0.13975336 -0.06132095 -0.031339917
0002b0 63 a4 8c 3e c4 56 27 3e 22 a6 a3 3d 36 96 6f be
       0.27469167 0.16341692 0.07990672 -0.23397145
0002c0 ef 59 6d bc 85 e2 82 bc 63 48 d4 3d a5 1f 13 3e
       -0.014486774 -0.015977154 0.10365369 0.1436754
0002d0 4c c9 1f bd b0 8f c3 3d cb fb 44 be 14 51 ad bc
       -0.03901033 0.095488906 -0.19236676 -0.021156825
0002e0 0a b0 3a 3d 66 11 69 bd ef 6b 67 bc fd 99 80 bc
       0.04557804 -0.056901358 -0.0141248545 -0.015698427
0002f0 92 b8 aa bd 58 26 53 be 0a 87 60 be 8d 66 ab 3d
       -0.08335985 -0.20620096 -0.21926513 0.083691694
000300 50 9d 6f 3e c8 a2 8c bd 51 f7 96 bd 79 95 2c bd
       0.23399854 -0.068669856 -0.073713906 -0.042134736
000310 e5 20 f8 bd 24 db 93 3c 34 5d c6 bd d6 16 bb 3d
       -0.12115649 0.01804883 -0.09685746 0.09135215
000320 13 fa 26 3e d5 14 b5 bc ad 11 d8 bd da da 20 be
       0.16306333 -0.02210466 -0.105502464 -0.15708485
000330 f3 04 bb 3d 78 17 89 3d 27 64 37 3d 56 a1 c9 3d
       0.09131803 0.066939294 0.044773247 0.098452255
000340 9a f0 be 3d 3d c1 fb 3d 6f 65 4e 3e 94 fe 61 be
       0.09323235 0.12292717 0.20155881 -0.2206977
000350 9c fa 56 be 31 d3 31 3d bd 24 4d be 07 7c 9d 3d
       -0.20994037 0.0434143 -0.20033546 0.07689672
000360 74 81 2e 3d 0a de 63 3e 30 64 d0 3c 51 ba b6 bd
       0.042603925 0.2225267 0.025438398 -0.08922256
000370 f6 99 ee bd 28 e4 eb bb ff bf 85 3c 3b 29 f1 bd
       -0.116504595 -0.007198829 0.016326902 -0.11775442
000380 c3 07 4c 3e 05 cc 34 3e 41 c3 21 be bb fe 2c 3e
       0.19924836 0.17655952 -0.1579714 0.16894047
000390 4d 2e 00 be 91 2a a1 3d de b0 7b be 6e 63 10 3e
       -0.12517662 0.07869447 -0.24579188 0.1410043
0003a0 ef 81 c9 bd aa 8e 5d bc 77 af 43 be cf b8 98 bc
       -0.09839236 -0.013522783 -0.19109903 -0.018642811
0003b0 83 19 51 bd 5c 13 49 be 5f 3f 3b 3d fb c3 74 3e
       -0.05104972 -0.19636291 0.045714732 0.23902886
0003c0 96 db 5d be 85 46 06 3e 8c 06 17 3e ab 9a 2d 3d
       -0.21665797 0.13112839 0.14748591 0.04238383
0003d0 19 d4 74 3e 36 25 bc 3d 30 4c dd 3d 5c d0 2a be
       0.23909034 0.09186785 0.10805547 -0.16681045
0003e0 19 62 a5 bd ff 74 62 bd 23 fe a7 bc 39 f0 01 be
       -0.08075351 -0.055287357 -0.020506924 -0.12689294
0003f0 10 e4 bb 3d ce 77 01 be 62 e8 05 3e 14 f8 61 be
       0.09174359 -0.12643358 0.13076928 -0.2206729

conv2_x.0.downsample.bias f4 [32]
000000 75 20 1d 3e d0 c6 b5 bc 7a 78 0b be 6d 82 94 3d
       0.15344413 -0.022189528 -0.13620177 0.07251439
000010 5c 57 97 3d f7 d0 44 3e 1a 40 31 be 76 29 4e bc
       0.07389709 0.19220339 -0.17309609 -0.012583127
000020 e4 f2 c3 3d e5 57 23 3e c1 3f f6 3d 1c 86 0c 3e
       0.09567812 0.15951498 0.12023879 0.13723034
000030 f4 e7 a6 3d ce 8d 1a 3e 2e 61 46 be 16 3b b9 bc
       0.0814971 0.15093157 -0.19373009 -0.022611182
000040 c8 76 53 3e 76 db 52 be 45 8c 5b be ea 40 07 be
       0.2065078 -0.2059153 -0.21440227 -0.13208356
000050 ea af 2c be 7a 8a 9a bc 79 7b 74 bc 43 66 12 be
       -0.16863981 -0.018864859 -0.014922016 -0.14296822
000060 b8 8c 90 3c dd 27 f0 bd ec 49 a0 3d a0 29 92 3d
       0.017645225 -0.11726353 0.078265995 0.071368456
000070 bc 4e 13 3e 0c 89 ce 3c 71 e1 9c bd 25 a7 6f bd
       0.14385504 0.025211833 -0.07660187 -0.05850901

conv2_x.1.conv1.weight f4 [32, 32, 3, 3]
000000 66 a6 4c 3c 40 b3 b7 bc 8a 9b 84 bd c4 e5 d1 bc
       0.012490844 -0.02242434 -0.06474979 -0.025622256
000010 4a 39 57 3d ba 1e 13 bc 86 41 66 3c ee 5e c5 3c
       0.05254487 -0.008979494 0.014053708 0.024093118
000020 21 54 1e 3d 97 72 98 bc 9e 48 c3 bb 51 0d ff 3c
       0.03865445 -0.018609328 -0.0059595844 0.03113428
000030 1f 58 2b ba 95 2f a5 3c 6e 30 b5 3c 24 a7 a4 bd
       -0.00065362634 0.02016429 0.02211782 -0.08039692
000040 e0 a4 d6 bc ec 38 98 bc f1 7e 5f bd 6f 50 c5 3b
       -0.026201665 -0.01858183 -0.05456442 0.0060215513
000050 e5 fe f6 3c 0d e8 6a 3d 47 3e 46 3d 94 58 0d 3b
       0.03015084 0.057350207 0.048399236 0.002156769
000060 83 f5 9e bc 80 43 12 bc 48 9d 5b bd 97 a3 93 3a
       -0.019404178 -0.008927226 -0.053616792 0.0011263964
000070 72 ff 18 3d 71 ab 14 3d 2d 6e 08 3d 36 74 33 3d
       0.037352987 0.03629631 0.033308197 0.043812
000080 1b 33 a8 3c ce d5 d6 3a ea 59 89 bc 72 e6 8e 3c
       0.020532181 0.0016390623 -0.016766507 0.01744387
000090 7c 60 e9 bb 87 d4 9f 39 51 34 a8 bc 07 81 1d bd
       -0.0071220975 0.00030485188 -0.020532759 -0.03845313
0000a0 65 5e 27 3d 41 a6 74 3c eb e3 e0 bb da 38 50 bc
       0.040861506 0.014932216 -0.0068631074 -0.012708867
0000b0 73 14 4c bd 03 70 b8 bb bf c4 34 3d 18 5c 4e 3d
       -0.04982419 -0.005628587 0.044132944 0.050380796
0000c0 f7 10 04 bd 81 d3 13 3d 1a 5a 74 bb f1 8b 2d 3c
       -0.03224274 0.036090378 -0.003728515 0.010592447
0000d0 10 38 01 bd 92 4c c2 bc 74 63 e4 bc b6 c0 ef bc
       -0.031547606 -0.023718152 -0.027879454 -0.029266696
0000e0 44 6e 7c 3b bc 2f 17 bb 3c bc 00 3d 51 06 27 bd
       0.0038517872 -0.0023069223 0.031429514 -0.04077751
0000f0 2f 0f 44 bc 02 bb bd bc 80 b2 1a 3d 97 a6 ac 3d
       -0.011966511 -0.023160461 0.037767887 0.08430212
000100 74 10 73 3d 5e ad 8c 3d e3 f0 15 3d 4d 69 3a bb
       0.059341863 0.06869005 0.03660668 -0.0028444112
000110 a9 53 35 bd e7 6e ff 3c 18 f5 8d bc 00 69 18 bc
       -0.044269238 0.031180812 -0.017328784 -0.009302378
000120 6f 2f f0 3c 9c 77 0b bd 46 f3 33 3c e3 bc 48 3d
       0.029319493 -0.034049615 0.010983294 0.04900826
000130 df d9 09 3d e8 82 9a bb d3 37 80 3d a3 ac 70 bb
       0.033655044 -0.0047153123 0.062606476 -0.0036723993
000140 a1 a3 64 3d 7a f3 84 3c f0 58 8a bc e0 df 81 bc
       0.05582011 0.01622938 -0.016888112 -0.015853822
000150 fe 36 ea bc 48 c8 a6 3d 5b ad a5 3c e1 ee 83 3b
       -0.028590675 0.08143669 0.020224264 0.0040262793
000160 4b 2a 58 3d 86 cc 92 3b fa 33 1b bc a3 54 7f 3d
       0.05277471 0.0044799475 -0.009472841 0.062336575
000170 6a d0 97 ba c9 76 02 bd 7d 34 ae bc 3b f1 8f 3c
       -0.0011582498 -0.031851564 -0.021265263 0.017571082
000180 13 3a ad bc b7 49 55 3b 98 30 9d bd 09 f5 21 bb
       -0.021145856 0.0032545158 -0.07675284 -0.0024712703
000190 b8 d5 ce bc ed 53 b8 3b 72 4a c8 bc 48 66 0e 3d
       -0.025248393 0.005625239 -0.02444956 0.03476551
0001a0 8a 0e c5 3c f5 15 96 3d 18 b1 71 3d 47 85 2d 3d
       0.024054784 0.07328407 0.05900678 0.04236343
0001b0 5a 18 f5 3b df 79 54 bc 7d c1 89 bd 8c b0 b5 3c
       0.0074797096 -0.012968509 -0.06726358 0.02217891
0001c0 c6 f7 a5 bc 62 5f 1e bd e2 8e e0 bb 19 44 87 3d
       -0.02025975 -0.038665183 -0.0068529705 0.066047855
0001d0 e4 c9 0d 3d 0f 2c 46 bd 2f c0 0d bc 12 08 e9 bc
       0.034616366 -0.04838186 -0.008651777 -0.028446231
0001e0 a3 59 d3 bc 3d fd d0 3b 2e d3 9b bc 1c 10 02 bd
       -0.025799578 0.0063778446 -0.019021597 -0.031753644
0001f0 de 9e 94 3c de 6f 6f 3d b1 ab e0 3c f3 c8 14 3d
       0.01814216 0.058456294 0.027425619 0.036324453
000200 d1 87 77 3c 7b 16 74 3d 21 0f 3a bd 7d 30 a3 3d
       0.015108065 0.05959175 -0.045424584 0.07968233
000210 65 07 c6 3b 87 a9 e4 3c d3 3a 6d 3d fb 07 57 bc
       0.006043362 0.027912868 0.057917427 -0.013124461
000220 5a 49 ee bc 68 bf 37 bd 79 69 23 3d 6e 3b 2d 3d
       -0.029087711 -0.044860274 0.03989551 0.042293005
000230 29 3a 2e bd 49 d5 82 ba d2 1a 03 3d 8e ad 10 bd
       -0.042535935 -0.0009981777 0.032008 -0.035321765
000240 32 41 ae 3c 92 8f 67 bb ca ad 7c 3b 80 5f 1c bc
       0.021271322 -0.0035333377 0.0038555735 -0.009544253
000250 07 79 5b 3d 01 e4 27 3d aa 60 85 3d 0a f5 94 3d
       0.053582218 0.040988926 0.06512578 0.072733
000260 12 7e 03 3d ab fc 1c 3c bd 13 2f 3d 46 6f 1d 3d
       0.032102652 0.009581725 0.042743433 0.038436197
000270 bb 6a fc 3c d4 ba e6 3c c2 82 d4 3c 24 5d bc bc
       0.030812612 0.028165258 0.025941256 -0.022993632
000280 78 ca 5c 3d 99 ed eb bc bd 42 bc 3c 96 a7 bf bc
       0.053904027 -0.028799819 0.022981042 -0.02339534
000290 84 3e 12 3c 86 9b 4f bd 1c 37 53 bc 08 be e4 38
       0.008926038 -0.050685428 -0.012891557 0.00010907283
0002a0 09 55 d3 ba 10 99 64 3c b9 f7 41 3d 27 a1 0c bc
       -0.0016123365 0.013952509 0.047355387 -0.008583344
0002b0 06 ea 4f 3d 04 76 97 bc a2 52 13 3c b3 f8 44 bc
       0.05076029 -0.018488891 0.008991869 -0.012022185
0002c0 d1 ea 4b 3d a3 ae 2b 3d bc 21 88 3c ae b4 c2 3c
       0.049784485 0.041914593 0.016617648 0.023767795
0002d0 3c 55 6d 3a 65 d9 51 bc fb 6d 15 3c 44 5d 37 bd
       0.00090535334 -0.012808179 0.00912046 -0.04476668
0002e0 69 bc bf b9 7b d5 9e 3c 0d e9 22 bd 40 fb 1b 3d
       -0.00036570735 0.019388905 -0.039773036 0.038081408
0002f0 f8 c8 e7 ba c2 20 98 3c 89 10 1f 3d d9 fa 01 bd
       -0.0017683795 0.018570308 0.03883413 -0.031733368
000300 f2 eb 18 bb 3c fb 73 3d e2 6f 53 3d 94 5b 59 3d
       -0.0023333994 0.059565768 0.05162037 0.05306585
000310 f3 64 0c 3c 90 d4 d1 3c 83 a7 81 3b 3a 7e 0b bc
       0.00856899 0.025614053 0.0039567365 -0.0085139815
000320 bd c0 58 bd 50 d7 c0 bc e5 6c 69 3d c4 98 5d bc
       -0.052918185 -0.023540169 0.056988616 -0.013525192
000330 8b 01 10 3d 9b c7 33 bc 95 f6 11 3c 60 77 0e bc
       0.03515772 -0.010972883 0.008908887 -0.008695453
000340 55 5a 24 3c 4f 8b 04 3d 2f 38 81 3c d6 44 6d bc
       0.010031302 0.032359418 0.01577386 -0.014481744
000350 08 db 0d bd b7 80 c2 bc 06 c3 01 bd 79 92 6f bb
       -0.034632713 -0.023743017 -0.03168013 -0.003655581
000360 e5 e5 bb bb 41 ec 6a bd 70 7e 11 3d 9b c9 09 bd
       -0.0057341927 -0.057354216 0.03552097 -0.03363953
000370 c1 1f 26 3c 4a d9 3e 3a 76 ca 46 3d a9 b6 a0 3d
       0.010139407 0.00072803034 0.048532926 0.0784734
000380 04 08 a1 3d e5 26 bf 3b 19 c0 9d bd 65 e3 b0 bd
       0.07862857 0.005833494 -0.07702655 -0.08637122
000390 27 0e 7c 3c 16 a2 c0 bb a0 38 53 bd 9f 94 1f bc
       0.015384234 -0.005878697 -0.051567674 -0.009740024
0003a0 22 69 8b 3d bd 45 13 3d f8 a5 3b bd a5 f4 2f 3d
       0.06807162 0.03595518 -0.045812577 0.04295792
0003b0 2c 31 84 3c 8c d5 02 bd de a6 13 bc 4e dd 42 3d
       0.016136728 -0.031941935 -0.009011952 0.047574334
0003c0 69 7c 2e 3d 56 20 51 3d 53 8f 33 3d 01 bf 03 3d
       0.042599116 0.05105623 0.043837857 0.032164577
0003d0 82 99 aa 3c 13 f9 8a bb 8d 8b 5e 3d bd 75 05 3c
       0.020825151 -0.0042411177 0.054332305 0.008145747
0003e0 d5 2d a2 3d 16 5d ac 3d a4 a9 83 bb 2c aa 89 3d
       0.07918898 0.08416192 -0.0040180255 0.06721911
0003f0 cc 87 45 3d 8c bd 52 3c 98 b0 37 bd 6d 9e 50 bd
       0.04822521 0.012862574 -0.044846147 -0.050932337

conv2_x.1.bn1.weight f4 [32]
000000 4a 39 65 3f 6f 8f 84 3f 63 c2 83 3f 42 42 5e 3f
       0.8954054 1.0356272 1.0293697 0.8681985
000010 eb 38 6d 3f 77 a8 79 3f 91 0b 85 3f bf 75 76 3f
       0.92664975 0.9752268 1.0394155 0.96273416
000020 f5 c2 84 3f 2c bd 84 3f 0b 43 69 3f 00 46 84 3f
       1.0371996 1.0370231 0.91117924 1.0333862
000030 90 d3 7c 3f 1d 02 84 3f 74 f4 88 3f d9 9f 7e 3f
       0.9876032 1.0313145 1.0699601 0.9946266
000040 bd 01 84 3f 8b d9 71 3f 6c 71 85 3f d6 9c 89 3f
       1.031303 0.9447257 1.0425239 1.0750988
000050 5e bc 87 3f b7 ee 7f 3f 70 54 86 3f da 65 84 3f
       1.060436 0.99973625 1.0494518 1.0343583
000060 a6 fa 89 3f 34 47 82 3f 04 bb 82 3f 82 ec 80 3f
       1.0779617 1.017798 1.0213323 1.0072176
000070 8f 77 85 3f 27 a8 6d 3f 4b 7f 87 3f 4a ca 85 3f
       1.0427111 0.92834705 1.0585722 1.0452359

conv2_x.1.bn1.bias f4 [32]
000000 50 07 f5 bc 2c 42 87 3c e1 ef 08 bd 56 04 4a bd
       -0.029910713 0.016511045 -0.03343189 -0.04932054
000010 11 4c 90 bc 3d f5 75 3c f4 37 75 bd f9 62 a2 3c
       -0.017614396 0.015012083 -0.059867814 0.019822584
000020 98 ce 8f ba 4d 49 73 3c f6 9b 2b bc ee e1 b6 bc
       -0.0010971604 0.014849019 -0.010474196 -0.022324529
000030 bd db 23 bd 1e b2 8c 3c 2c 01 22 3d bb 56 80 3c
       -0.04000448 0.017174777 0.0395519 0.015666356
000040 49 4f a7 bb 5b 23 56 3c 3a 57 49 bc 15 7f 36 3d
       -0.005105887 0.013069953 -0.012288863 0.04455479
000050 ee 71 35 3c e2 0f 04 bd e9 61 68 3c d2 83 1b 3d
       0.011074526 -0.03224171 0.0141835 0.03796751
000060 32 54 12 3d 74 d2 05 bd c8 71 21 bc c6 74 1c 3c
       0.035724826 -0.032671407 -0.009853788 0.009549325
000070 d3 79 1e 3c 6d 90 a5 ba 9d ea 19 3b f5 99 bb 3b
       0.0096726 -0.0012631543 0.0023485788 0.00572514

conv2_x.1.bn1.running_mean f4 [32]
000000 ac 1b d1 3e fe 02 ba be f7 9b c9 be eb 29 92 3e
       0.40841424 -0.36330408 -0.39376804 0.28547606
000010 04 17 1e 3e 0c 40 72 bd c9 04 2c bf 96 48 d0 3d
       0.15438467 -0.05914311 -0.671948 0.10170095
000020 b5 76 14 bf 04 31 cf be dc 16 f5 3e 66 ab ef bd
       -0.5799363 -0.40467083 0.47869003 -0.117026135
000030 49 07 7a 3e 38 ae c3 bc 39 5f 62 be 4e 56 f2 be
       0.24416842 -0.023886785 -0.22106637 -0.4733147
000040 98 5a 8a be 09 46 ab be e2 3f bd be f5 8d f7 be
       -0.27022243 -0.3345187 -0.369628 -0.48350492
000050 d4 3b b7 be 35 7f cc be 7b 37 f8 be 58 95 62 bf
       -0.35787833 -0.399408 -0.48479828 -0.8850913
000060 a5 d9 3d be f4 b6 b3 be 6d 44 d0 bd d6 5e 53 be
       -0.18540056 -0.3510052 -0.10169301 -0.20641646
000070 0c 13 b3 bd e7 e9 88 3e ee 74 f1 bd ea 77 25 be
       -0.08743867 0.26740953 -0.11789881 -0.16159025

conv2_x.1.bn1.running_var f4 [32]
000000 38 60 ec 3e 44 28 09 3f e3 5f 51 3f d6 1a 83 3f
       0.4616716 0.53577065 0.81786937 1.0242565
000010 b1 17 f8 3e 79 b3 69 3e ef 55 8d 3e ee a3 12 3f
       0.48455575 0.2282237 0.27604625 0.57281387
000020 84 8f 66 3f b3 fc 45 3f cc bf 31 3f 78 88 e8 3e
       0.9006274 0.77338713 0.69433284 0.45416617
000030 0f cd 9c 3e 78 32 df 3e bc 39 b1 3e 19 3d a1 3e
       0.30625197 0.43593192 0.3461436 0.31491926
000040 6c 2c 94 3f a0 21 02 3f 49 11 5e 3e 16 ce 06 3f
       1.1576056 0.5083256 0.21686281 0.5265821
000050 19 e3 4d 3f 2a af 4b 3f 2d 2f 14 3f 1d 44 14 3f
       0.8042465 0.79564154 0.57884485 0.5791643
000060 f7 a3 1a 3f 51 b3 9a 3e 9c 87 c4 3e 02 1a d4 3e
       0.6040644 0.30214933 0.38384712 0.41426092
000070 ca fa bf 3e cc ee 38 3f 9e 61 30 3e e8 50 83 3e
       0.37496024 0.72239375 0.17224738 0.25647664
