log/BPDnet8_specAugment/Model/best_full.pth (torch, 612187 bytes, 176 tensors)

conv1.weight f4 [8, 1, 7, 7]
000000 20 4c c9 bd 89 b5 7a 3d a0 d9 bf 3d a7 4a 39 bd
       -0.09828973 0.06120828 0.093676805 -0.04523721
000010 1a fa 97 bd 5d 4d b9 3d 3d 29 97 bb 3b e5 93 bd
       -0.0742075 0.09047959 -0.0046130703 -0.072214566
000020 19 b9 61 bd 9f a1 16 3d cc df 2d bd 58 81 80 bd
       -0.055108164 0.036775228 -0.042449757 -0.0627467
000030 fa 1e 85 3d 34 19 36 bd 73 36 29 bc 2d 4a 1c 3c
       0.06500049 -0.04445763 -0.010327923 0.009539169
000040 24 ba ae 3d fa 72 e5 bd 47 72 bc 3d 4b 45 bf bc
       0.08531597 -0.11203571 0.09201484 -0.023348471
000050 a4 e3 e5 bd 8d 2f 40 bd d7 21 a5 3c 81 c2 66 3d
       -0.1122506 -0.046920348 0.020157738 0.056337837
000060 d5 4b be bd 75 43 d1 3d 27 1a b3 bd d9 05 ab bc
       -0.092918076 0.102179445 -0.087452225 -0.020876812
000070 12 c4 33 3d d4 7d d2 3d db d7 0b 3e 46 d7 3e bc
       0.04388816 0.10277906 0.13656561 -0.011648005
000080 e4 26 58 bb f6 65 a8 bc 4d 5f 0b bc 6a 66 5b 3d
       -0.0032982165 -0.020556431 -0.008506608 0.053564467
000090 b6 b5 71 3e b3 92 6c 3d cc bb 9e 3d 22 d0 20 3d
       0.23604473 0.05775709 0.07750663 0.03926099
0000a0 84 b7 a0 3d 7b 11 0d 3d 86 6b c0 3d c3 27 f3 3d
       0.07847503 0.0344405 0.093955085 0.11872818
0000b0 8c a5 59 3d f8 f8 80 bd 08 f4 e3 bd 52 f8 a5 bd
       0.053136393 -0.06297487 -0.1113053 -0.08104004
0000c0 c1 ef 07 bd 5a c5 a6 3c 0d c2 ee bd 77 c5 24 bc
       -0.03318763 0.020357776 -0.11658106 -0.010056845
0000d0 22 f7 02 bc 99 0c e6 3d ec 91 ae 3d 61 bb bf bc
       -0.007993491 0.112328716 0.08523926 -0.023404779
0000e0 57 3c d1 3c fc 5e 10 be 02 a7 f6 bd 32 c1 14 3d
       0.025541468 -0.14098734 -0.12043573 0.036317058
0000f0 21 9e 33 3d 47 fd 79 3d 59 7e a7 3d 31 90 ca bd
       0.043851975 0.06103256 0.08178396 -0.098907836
000100 d9 cd 77 bd 68 03 4f bd ea cf f8 bc b2 e5 37 3e
       -0.060499046 -0.050540358 -0.030372579 0.17958716
000110 fa 52 83 3c 90 94 4f bc f7 70 35 3c ba 31 fa bd
       0.016030777 -0.012669697 0.011074296 -0.12216516
000120 8b 46 64 3d 36 43 78 3d 62 d0 05 3e bd d3 df 3c
       0.055731338 0.060610972 0.13067773 0.027322644
000130 c8 87 02 3d 9e e1 74 bd 8d 5e 27 3e ba 0c f1 bd
       0.031867772 -0.059785478 0.16344662 -0.117700055
000140 be 1f 10 3e 28 c3 8b 3c 87 a0 d8 3c 4a cb dc bc
       0.14074609 0.017060831 0.026443733 -0.026952405
000150 a9 ad d9 3c 5c 8c a2 3d dc 9f 83 bd b2 6a ea 3d
       0.026572065 0.07936928 -0.06426975 0.11446132
000160 f6 e6 8b 3d 12 7e 07 3d be 13 d6 3d b0 c2 97 bc
       0.06831162 0.033079214 0.10452984 -0.018525451
000170 61 0f 44 3d dc 40 f9 3c 54 1d 6d bd ef d4 c9 3d
       0.04786623 0.030426435 -0.057889298 0.09855067
000180 fd 7d 72 3d 58 69 e0 3d 5e d3 be bc 0e f0 98 3c
       0.059202183 0.10957593 -0.023294147 0.018669154
000190 f3 a2 37 bd 97 93 f7 3d 3f e6 a6 bc 09 09 b2 bd
       -0.044833135 0.120886974 -0.020373462 -0.086931296
0001a0 2d dc 92 3d 6f cf 4e bd 4f 2b d2 3d 20 66 85 bd
       0.071709014 -0.050490793 0.10262167 -0.065136194
0001b0 55 3e 18 3d ab 3b ec 3c 8a 2c 66 bc 48 25 bd 3d
       0.03716882 0.028837046 -0.014048705 0.092356265
0001c0 a2 ee 0c 3d 97 fc 08 3d 4a 0e 0b 3e ae aa ae 3d
       0.034407265 0.033444013 0.1357967 0.08528648
0001d0 36 79 b5 3d 51 cd af bd 46 60 9f 3d d1 2c fb 3d
       0.0886101 -0.08584083 0.077820346 0.122644074
0001e0 2c e9 e0 3d 0c dc af 3c bc d7 1d 3d ac 5f ce bd
       0.10981974 0.021467231 0.03853582 -0.10076842
0001f0 60 90 44 bb 5d e2 16 bd f8 4e 00 3e a5 21 d5 3d
       -0.002999328 -0.03683697 0.12530124 0.10406808
000200 1e 6c 49 3d f8 56 dc bd bc 93 9b bd 18 f5 24 bb
       0.049175374 -0.107587755 -0.075965375 -0.0025170501
000210 fa 47 a9 3c 2e c2 16 3e d0 79 1a bd 46 84 95 3c
       0.020664204 0.14722511 -0.037713826 0.01825155
000220 98 60 7f 3d 3a 97 c2 bd 9d bd 87 3d f3 7f 96 bd
       0.06234798 -0.095015004 0.06627963 -0.07348623
000230 0a e4 8f 3d ec 89 7a bd fd 17 89 bd ff 04 b2 bd
       0.07025917 -0.06116669 -0.066940285 -0.08692359
000240 38 cc 1c bd b2 7a d2 bd e6 5a 15 bd 92 d7 25 bd
       -0.038280696 -0.102773085 -0.03646364 -0.040488787
000250 fc 7e f6 3c e8 85 68 bd fb 63 e4 3c a4 fa 88 bd
       0.030089848 -0.056768328 0.027879706 -0.06688431
000260 51 94 8a bd 80 48 c5 bc 0d ab 78 3d 0e 9f 8e bd
       -0.0676657 -0.024082422 0.06071 -0.06963931
000270 32 d8 ee bb f9 de a7 bb 18 d9 f2 bb 5f af cf bb
       -0.007288956 -0.005123016 -0.0074111335 -0.0063380445
000280 d1 c6 f1 bc cb 48 b2 3b 8f 8c 39 bc 62 0a 0d bd
       -0.029513748 0.0054408065 -0.011325016 -0.03443373
000290 b0 1a 3d bc c8 8b e6 bc 95 8c 97 bd 5a 7b b1 3b
       -0.011542007 -0.028142825 -0.07399861 0.005416316
0002a0 4b 64 35 3e ec 08 31 3e 3e 74 a3 3c 5b 59 ba bd
       0.1771404 0.1728856 0.01995289 -0.090990745
0002b0 70 3b be bd 18 83 39 bd 98 a6 b3 bc 8f ae 1b bc
       -0.092886806 -0.045291036 -0.021930024 -0.009502067
0002c0 da db f1 3d 3d 62 f9 3d 84 13 c2 3d 04 69 4f 3d
       0.118095115 0.121769406 0.094763786 0.05063726
0002d0 13 17 53 bc e9 8b 01 bc ce c6 09 be a7 d6 e3 bd
       -0.012883919 -0.007906892 -0.13454744 -0.11124926
0002e0 65 e4 d6 3d 86 3d bd 3d 36 c9 48 3e b2 7b 23 3e
       0.104927815 0.0924025 0.19608006 0.15965155
0002f0 7f 19 bc 3d cd 69 d5 bd 6f 6c 5f 3a 69 eb c0 bd
       0.091845505 -0.104205705 0.0008522933 -0.09419901
000300 08 a2 24 bd ed 7d 00 3c 3e b5 28 bc 68 71 c1 3d
       -0.040193588 0.007842523 -0.010297118 0.09445459
000310 f2 5a 3e 3d 87 de 76 3d 5b d9 a2 3d 19 46 57 3e
       0.04647345 0.060270812 0.079516135 0.21022834
000320 fc b4 4c 3e 9c 7a 2b 3e 9e 5c da 3d ea 16 5f bb
       0.19990915 0.1674599 0.106621966 -0.0034040757
000330 39 af 55 bd e0 7d d7 bd 5a ec 3b 3d 79 63 ef 3c
       -0.05216906 -0.105220556 0.0458797 0.029222237
000340 56 ae 0c 3e bb ef 46 3d 98 bf 6f bc 7b 61 84 bc
       0.13738379 0.04856847 -0.014633082 -0.016159764
000350 e5 03 91 bd 11 14 8f bd c7 0e bc 3d d1 f0 89 3d
       -0.07080821 -0.06986249 0.09182506 0.06735385
000360 04 2b 45 3d 79 42 a2 bd f0 cc 6c 3c d5 5c 9d bd
       0.048136726 -0.07922835 0.014453158 -0.07683722
000370 1d 8f 2a be e7 3d 3d 3d 90 90 6b bd d3 ff bf 3d
       -0.16656156 0.046201613 -0.057510912 0.093749665
000380 70 17 01 3a 30 5d 10 3d aa 96 99 bd e9 33 b7 bd
       0.0004924452 0.03524512 -0.0749944 -0.08945448
000390 49 b5 1e bd a3 03 c5 3d 8c d9 f8 3c 2c 1b d5 bd
       -0.038747106 0.09619834 0.030377172 -0.10405573
0003a0 6e 8d 80 bd ee 10 22 3d f4 d8 4f bc 2a e4 48 bd
       -0.062769756 0.039566927 -0.012686003 -0.04904572
0003b0 a3 46 46 3b f7 05 c7 3d d5 08 a0 bd 61 fd 56 bd
       0.0030254505 0.097179346 -0.078141846 -0.052487735
0003c0 a6 70 0b 3d 96 a8 95 bd 70 c9 96 bd 85 13 74 3b
       0.034042977 -0.07307546 -0.0736264 0.003724308
0003d0 f6 46 ce bc 4a 1a d3 3c b1 b7 b0 3d 1b 41 a5 bd
       -0.025180321 0.025769372 0.08628786 -0.080690585
0003e0 aa 62 d0 3d 5d 2f c8 bd ca ec a1 bd a5 5a d1 bd
       0.10175069 -0.09774659 -0.07906492 -0.10222367
0003f0 8e 21 a6 3d 54 41 d1 bc 53 1a b8 3d 52 54 e7 3c
       0.08111869 -0.025543846 0.08989396 0.02823845

conv1.bias f4 [8]
000000 14 af 55 bd cb 6b 11 be 8a 48 ac bd ae 6e f0 3c
       -0.05216892 -0.14201276 -0.08412273 0.029349651
000010 7c a8 98 3d 1c 70 04 3e 31 d2 32 bb 2a 11 03 3e
       0.07454011 0.12933391 -0.0027285928 0.12799516

bn.weight f4 [8]
000000 7b 86 79 3f 02 2e 74 3f 0e 2d 6e 3f fd de 7a 3f
       0.97470826 0.953827 0.930375 0.97996503
000010 a9 f5 71 3f 2e 43 6b 3f c9 57 72 3f b1 1d 5c 3f
       0.9451547 0.91899383 0.946652 0.85982805

bn.bias f4 [8]
000000 dc fc 7e 3d 98 c3 67 3d ff 5c 7b 3d 69 e4 00 3e
       0.062252864 0.056583017 0.061367985 0.12587132
000010 40 6e b7 3d 9e 7a 2c 3e 4e e0 0c 3e 83 c5 75 bd
       0.089565754 0.1684365 0.1375744 -0.060002815

bn.running_mean f4 [8]
000000 0e 3a 30 bd 5e 03 ff bd 64 fe 96 bd 17 1f 10 3d
       -0.043024115 -0.12451814 -0.0737274 0.0351859
000010 04 2b a7 3d 20 14 0f 3e 39 70 45 3b 38 86 fb 3d
       0.081625015 0.13972521 0.0030126704 0.122814596

bn.running_var f4 [8]
000000 1a a2 82 3a d4 bd 1a 3b 20 31 8b 3a 52 46 1e 3a
       0.0009966523 0.0023611682 0.0010619499 0.00060377
000010 40 af a5 3a 05 8f a5 3a c6 43 0c 3a 47 7e 18 3a
       0.001264073 0.0012631124 0.0005350675 0.00058171566

conv2_x.0.conv1.weight f4 [16, 8, 3, 3]
000000 2e 6c a2 3d 91 9e c4 3d 79 ab 96 3d 7b 61 83 bd
       0.0793079 0.09600557 0.073569246 -0.06415077
000010 44 0b dd bc 61 08 ad 3d fe 38 2a 3d 4b 22 91 bd
       -0.02698291 0.08448864 0.04155826 -0.07086619
000020 0f 7e 9d 3d d2 32 e2 3d 70 17 8e 3d ba 4b 9c bd
       0.076900594 0.110448495 0.06938064 -0.07631631
000030 ca 40 b9 bc ab a8 7b 3d 49 1a fa bc f8 3e 49 bd
       -0.022613902 0.06144015 -0.030530112 -0.049132317
000040 5c e8 b7 bd f0 dc d1 bd 18 73 91 bd aa f6 27 3d
       -0.08979866 -0.102472186 -0.071020305 0.04100672
000050 0b c9 00 3e 20 f5 c4 3d 1e 7c a7 3d 8c b9 32 3d
       0.12576692 0.096170664 0.0817797 0.043633983
000060 fd fc 8f bd fe b8 4d 3c c8 d2 76 3d a6 aa 96 3d
       -0.070306756 0.012556313 0.06025961 0.07356767
000070 52 ab b2 bd 9f 07 b7 bd e5 b6 d9 3d a5 69 cc bc
       -0.08724083 -0.089370005 0.106305875 -0.024952719
000080 43 58 b7 bd 5e 5e fd bd 14 a4 3e bd 39 48 fe bd
       -0.089523815 -0.12371515 -0.046543196 -0.12416119
000090 e4 11 8a 3d 87 a1 bd bd 78 bb bb bd 23 ef a9 3d
       0.067416936 -0.092593245 -0.09166616 0.08297565
0000a0 48 52 86 3c 24 0a cb bd a0 c3 a5 3d 36 7e d8 bd
       0.016396657 -0.099140435 0.08093953 -0.10570948
0000b0 af da 92 bd 94 18 b5 3d 8e 0c 67 3d 10 a1 f8 3c
       -0.07170617 0.088425785 0.056408457 0.030350238
0000c0 73 b0 b3 3d 7f 97 09 3c aa 40 87 bd 69 2f 6e bd
       0.087738894 0.008397936 -0.066041306 -0.058150683
0000d0 97 d6 80 3c 06 8a f5 bd 02 fb 9b bd e7 6b 9c bd
       0.015727324 -0.119892165 -0.07616235 -0.07637768
0000e0 f5 eb e2 3d 2c 28 b2 3d 06 c7 bc bd 8f 4e a5 bd
       0.110801615 0.086990684 -0.09217648 -0.080716245
0000f0 15 d1 cc bd 5a be b1 bd dc 75 41 bd c1 ca 83 3d
       -0.10000817 -0.08678885 -0.04723154 0.064351566
000100 11 0d d6 bc 38 34 81 3d 2b 0c 6f bd 5b 15 58 3c
       -0.026129277 0.06308788 -0.058361214 0.013188685
000110 45 0f 95 bd 2f ab 77 3d 0f ee ed 3c 95 76 af 3b
       -0.07278303 0.060465988 0.02904418 0.0053547123
000120 0e f9 01 bd 31 45 56 bd db 8a 43 bd 46 cf 82 bd
       -0.031731658 -0.05231208 -0.047739845 -0.063871905
000130 b4 30 dc bd 5d ac 44 bd b3 f1 30 3d bf 2d ba bd
       -0.10751477 -0.04801594 0.043199252 -0.090907566
000140 ad 14 86 bd 36 ac e9 ba fb 2e 33 3c f2 0a 62 3d
       -0.06546912 -0.0017827812 0.010936494 0.05518622
000150 1e 6d 96 bd b1 31 52 bd eb b4 05 3e cc 3f 63 3d
       -0.07345031 -0.05131692 0.13057296 0.055480763
000160 23 4b 97 bd 65 81 79 bd 46 10 98 bc 3f 32 68 3d
       -0.07387378 -0.060914416 -0.018562447 0.056688543
000170 43 0d c1 bc e5 b5 9c bd fc c4 07 3d 41 b8 24 3d
       -0.023565894 -0.07651881 0.033146843 0.04021478
000180 b6 97 3d bc 0a 78 f3 bc ca d3 74 bc ad 18 b1 bd
       -0.011571815 -0.029720325 -0.014943073 -0.08647285
000190 16 a1 80 bd 56 fa d6 3c a2 1c ea bd 63 35 2d bd
       -0.06280725 0.026242416 -0.114312425 -0.04228724
0001a0 0e d4 51 bd 43 59 8e 3c a6 17 ab bd 4f 43 76 3d
       -0.05122762 0.017376548 -0.0835412 0.060122784
0001b0 7e f0 84 bd f2 03 b7 3d ea 58 f9 3d 08 79 aa bd
       -0.06491183 0.089362994 0.12175162 -0.08323866
0001c0 4f c5 cc 3c ec c0 10 3d b2 4a a6 3c 77 5e c0 bc
       0.024996428 0.035340235 0.02029929 -0.023482544
0001d0 db 65 b1 3b f7 dd 02 3e e0 e9 95 3d e8 65 b3 3d
       0.0054137534 0.12779985 0.07319999 0.087596714
0001e0 82 9a bd 3d e4 64 0d bc 14 26 c8 3d a2 b8 a4 3c
       0.09257986 -0.008630011 0.09772888 0.020107571
0001f0 9e 55 3c 3d 92 eb c2 3d f9 6c 2f 3d 6b 04 80 bb
       0.04598009 0.09517588 0.042828534 -0.0039067767
000200 8c 79 38 3d bd 17 08 bc f4 f2 bd bd 3c fd 4c 3d
       0.04503779 -0.008306441 -0.09274855 0.05004619
000210 61 be 04 3d b3 b7 76 bd fa 0b e8 3d 61 c2 ae bd
       0.032408122 -0.060233783 0.11330409 -0.085331686
000220 79 cb 93 3b 9c d5 d3 3d db a8 03 3d b5 4b 82 bd
       0.00451034 0.10343477 0.032143455 -0.06362096
000230 02 69 05 3c cf 72 aa bd 91 06 82 bd 3a 6e fb 3b
       0.008142712 -0.08322679 -0.06348909 0.007673052
000240 a9 91 5c 3d dc bb fa 3a ca 0a 49 bd 88 99 39 3d
       0.05384985 0.0019129473 -0.049082555 0.045312434
000250 d2 64 63 bd 27 8f 92 3d 05 d5 f1 bd a2 d8 a0 bd
       -0.05551607 0.071562104 -0.118082084 -0.078538194
000260 39 c6 be 3b c3 7a a5 bd fa eb d0 3d 87 c8 95 3c
       0.00582197 -0.080800556 0.10201259 0.018284095
000270 2c 54 c3 3c 41 65 7c bb f6 b3 ad 3d 0f 83 94 3d
       0.023843847 -0.00385125 0.084815904 0.0725156
000280 d3 1a aa bc 5c 7f 17 bd 3d 67 f7 3c 9f 4c a8 bd
       -0.020764744 -0.036986694 0.030200595 -0.08217739
000290 cc 5c fb 3d 16 30 82 3d 84 b9 8a 3d 12 6f 20 3c
       0.12273559 0.06356828 0.067736655 0.009792106
0002a0 c5 a9 d5 bd 14 77 9c bd 8b 84 0d 3d 0c c4 c2 3d
       -0.104327716 -0.076399 0.03455023 0.09510049
0002b0 28 11 60 3d 59 22 e9 3d a3 ef fc bd 36 1e 92 3d
       0.05470386 0.113835044 -0.123503946 0.071346685
0002c0 19 8a 6f 3c 18 6b 43 3d 82 1f 71 bb b6 3d f0 bc
       0.014620327 0.047709554 -0.0036792462 -0.029326301
0002d0 9e 65 15 3d 83 a4 0d bc e5 7e 5e bd be f8 d8 3b
       0.036473863 -0.00864518 -0.054320235 0.0066214493
0002e0 8d 6a e4 3c d6 92 9c bd b7 3c 8b bc 31 18 80 bd
       0.027882839 -0.07645194 -0.016996725 -0.06254614
0002f0 c6 1c a6 bd 7e 35 9d bc 96 94 d1 3c 30 17 07 3e
       -0.08110957 -0.019190546 0.025583547 0.13192439
000300 b0 a5 ee bd 6f 56 95 bd 34 aa 48 bd 45 1f 5f bc
       -0.11652696 -0.072918765 -0.048990443 -0.013618295
000310 a6 26 5e bc e0 67 d7 3c f6 fb 1f bd cf d6 ab 3d
       -0.013559019 0.026294649 -0.039058648 0.08390581
000320 1f 37 43 3d 86 b8 6f 3c 5d 04 a7 bc 31 19 29 3d
       0.04765999 0.014631396 -0.020387823 0.04128379
000330 4f 33 19 3c 11 46 ba bd bc 22 bd bc ef 49 44 bd
       0.009350612 -0.09095395 -0.023087852 -0.04792207
000340 6f 5a 17 be 0f 90 9e bd 7d cc e8 bd 99 9c 88 bd
       -0.14780591 -0.07742321 -0.11367128 -0.06670494
000350 3b f0 31 bd ed 4e 33 bd 2e 2f 87 bd 68 10 0f bc
       -0.043441992 -0.04377644 -0.06600796 -0.008731939
000360 e7 4e f4 bd 6d d3 06 3c 1d db 40 bc 95 be 12 3d
       -0.11929112 0.008229119 -0.011770991 0.035826284
000370 29 26 8c bc e0 9d 8e 3d c9 84 93 bd a2 86 59 3d
       -0.01710804 0.06963706 -0.07203061 0.05310691
000380 8a 10 cf bd a0 5b f2 3a f6 26 9c 3d 8b e8 a6 bd
       -0.101105765 0.0018490441 0.07624619 -0.08149823
000390 1d 7c 96 3d e9 34 d7 bd 3f 20 96 3d 48 01 ac bd
       0.073478915 -0.10508139 0.07330369 -0.08398682
0003a0 1b 6a d1 3d 44 3f 12 3d 16 81 eb 3c 3c 8b bd bd
       0.10225316 0.035704866 0.028748076 -0.092550725
0003b0 86 27 26 3d ee fd 0d be d5 34 70 bc de b2 e5 bd
       0.040565036 -0.13866398 -0.014661034 -0.11215757
0003c0 1e 17 d3 bc 3b 6f 1c 3d 10 50 35 bc 16 8d a8 3d
       -0.02576786 0.038192015 -0.011066452 0.08230035
0003d0 7b 54 25 3e e7 37 45 3d c7 53 36 bd d8 de 60 3d
       0.16145508 0.048149016 -0.04451349 0.05490002
0003e0 b2 53 25 3c 5f 0a af bd 9c 54 aa bd 45 f4 2c ba
       0.010090755 -0.085469 -0.08316919 -0.00065976783
0003f0 4b 95 99 ba bc bb cc 3c 6c 76 39 bb 2f 54 c4 bc
       -0.0011717466 0.024991862 -0.0028299345 -0.023965923

conv2_x.0.bn1.weight f4 [8]
000000 1f 0d 78 3f 49 6a 7d 3f 4a 7c 6f 3f dc 56 74 3f
       0.9689502 0.98990303 0.93549025 0.95445037
000010 3d 50 83 3f d9 c3 7c 3f b8 59 79 3f 70 d5 75 3f
       1.0258862 0.9873634 0.97402525 0.96028805

conv2_x.0.bn1.bias f4 [8]
000000 96 fb b5 3d ba d8 e5 39 14 e3 30 3e 71 a9 2a 3e
       0.08885877 0.00043839758 0.17274123 0.166662
000010 15 46 67 3d 8a 41 e1 3d 61 1d 8f 3d ca 38 f0 3d
       0.05646332 0.10998829 0.069880255 0.11729582

conv2_x.0.bn1.running_mean f4 [8]
000000 ae 24 df 3e 8b 27 b1 3e ec c4 c5 3e 0b 92 0e 3f
       0.43582672 0.3460048 0.38626802 0.55691594
000010 5e 17 e6 3e 7d cc fe 3e d5 dc 04 3f 98 2d 9f 3e
       0.44939703 0.49765387 0.5189946 0.31089473

conv2_x.0.bn1.running_var f4 [8]
000000 4c b8 28 40 fd 9f f4 3f e6 52 07 40 ec 6d 3a 40
       2.6362486 1.9111325 2.1144347 2.912959
000010 d6 5c 13 40 a1 fb 17 40 27 83 1d 40 1f a1 22 3f
       2.3025413 2.3747332 2.46113 0.635271

conv2_x.0.conv2.weight f4 [16, 16, 3, 3]
000000 6e 64 74 bd 2b 40 53 3d ce 29 c9 bc 81 78 87 3d
       -0.05966609 0.051574867 -0.024556067 0.06614781
000010 48 15 1c bb 56 1a e5 3c 38 d0 9d 3d 04 b5 81 3d
       -0.0023816396 0.02796666 0.0770573 0.06333354
000020 c4 1b 7d bd 36 c8 e1 3c 47 bb 49 3d 2f e7 81 3d
       -0.061794057 0.027561288 0.049250867 0.06342923
000030 a2 46 16 bd 98 e5 a5 bd fd 0b 97 bd 30 9b 70 bd
       -0.036688454 -0.08100432 -0.073753335 -0.05874175
000040 7e 4e 81 bd c6 9b 98 3c 2e 45 a5 bd 8c e4 fb 3c
       -0.06313799 0.018628966 -0.080698356 0.030748628
000050 a5 0f 08 3d 8a 77 18 bd c3 ad e5 3b d3 26 ad 3d
       0.033218045 -0.037223376 0.0070092394 0.08454671
000060 34 08 0b bc 6e dd 98 bd 82 0b 27 3c a4 53 53 bd
       -0.0084858425 -0.07464109 0.010195615 -0.051593438
000070 57 ac 58 bb d2 60 38 3c 28 ed 71 bd f4 5e 0a b9
       -0.0033061707 0.0112535525 -0.05906406 -0.00013196078
000080 18 06 62 3d d9 3e c2 bd f1 50 38 bc 14 8a df bc
       0.055181593 -0.094846435 -0.011249767 -0.02728752
000090 5b b1 98 bc 73 be 13 bd 16 6b 08 3d 15 77 59 3d
       -0.018639257 -0.0360703 0.03330525 0.05309208
0000a0 fc 0e a7 3d bf 7c 9f 3d aa 94 8b 3c 29 63 75 bd
       0.08157155 0.07787465 0.017038662 -0.05990902
0000b0 d9 18 a0 3c dd 20 3d bd d7 1d fb 3c c4 61 37 3d
       0.019543098 -0.04617392 0.030653877 0.04477097
0000c0 19 51 26 3d 75 43 8f 3c be d8 9f 3d 7a de b2 3d
       0.040604685 0.01748822 0.07805012 0.0873384
0000d0 31 f2 6b 3d 46 18 13 bd 69 cb 1d 3d 06 09 a8 3d
       0.05760402 -0.03591182 0.038524065 0.08204846
0000e0 c6 6f af 3d 0e 00 52 bd d7 08 1d 3e cb 75 f6 3d
       0.08566241 -0.051269583 0.15335403 0.12034186
0000f0 5e 99 97 bc f1 38 86 3d 06 d4 80 3d 54 8a 03 39
       -0.018505748 0.065538295 0.0629044 0.00012544665
000100 20 0c 2c bd 4a 0d 54 3b a2 31 95 3d e0 84 ef bb
       -0.04200375 0.0032356554 0.07284857 -0.007309541
000110 6b 3a 31 bc 7f b6 29 bd fc f7 29 3d 67 62 9d bb
       -0.010817151 -0.041433807 0.041496262 -0.0048029902
000120 f4 38 a6 3c 39 9d 09 3c 57 2c 9c 3d d9 ac 40 3c
       0.02029083 0.008399301 0.07625645 0.01175996
000130 89 a0 33 bd 23 7d 0c 3d 86 39 f3 3c 38 e2 ae 3d
       -0.04385427 0.034299027 0.029690515 0.085392416
000140 42 62 7e bd 60 04 55 3d 7d d7 fe 3c b2 f5 ee 3c
       -0.062105425 0.052006125 0.031108612 0.029169891
000150 40 ef a9 bd b2 64 4c bc 0c 5a ac 3d b9 e7 c1 3c
       -0.082975864 -0.0124751795 0.084156126 0.023670064
000160 3a 1e 45 bd be 87 1e 3d fa 55 4b bd af f5 89 bc
       -0.04812453 0.038703673 -0.04964254 -0.016840784
000170 2f 8a 51 3d fa e0 ba bb 10 82 13 bd 13 93 91 3d
       0.051157173 -0.005703089 -0.03601271 0.0710813
000180 b7 31 88 bb 4d a1 1d bd 30 3f b0 bd b6 fe c6 3c
       -0.004156317 -0.038483907 -0.08605802 0.024291378
000190 e9 f5 68 bd 2b cc 6e 3d 07 2d fd 3c b9 88 24 3d
       -0.056875143 0.05830018 0.03090526 0.04016945
0001a0 7e a4 13 3d bd c0 2c bd d4 1e 23 bd 55 87 82 3c
       0.036045544 -0.042175997 -0.039824322 0.015933672
0001b0 71 62 8b bd 41 c4 d0 bc 7b 26 1d bd 89 ca 15 3d
       -0.068058856 -0.025484206 -0.038366776 0.036570106
0001c0 76 7d 6b b9 1d 78 81 3d c5 3e fe ba 2d 8a a5 bd
       -0.00022458084 0.06321738 -0.0019397369 -0.080829956
0001d0 19 61 9d bd 9e 1e bb bd e4 4a 9e 3d 81 4a 2b bc
       -0.076845355 -0.09136699 0.07729128 -0.010454775
0001e0 9d 93 b3 bd d7 a6 03 3d ac df fe bb 9f 1e 0b 3e
       -0.087683894 0.032141533 -0.0077781286 0.135859
0001f0 c8 d6 e6 3c 01 3b 95 bb 0f 93 34 3d 0a b9 66 bd
       0.028178588 -0.004554153 0.04408556 -0.05632881
000200 6c 12 8e bc 34 ea 2c bd 02 aa 5e bd 08 fd ff bb
       -0.017342769 -0.04221554 -0.05436135 -0.007812146
000210 98 b4 6e 3d 10 98 95 bd e6 07 04 3d 59 97 82 bd
       0.058277696 -0.07304394 0.032234095 -0.063765235
000220 58 38 8e 3d 98 3b c5 bc d7 a6 a2 bd 73 dd ee bc
       0.069443405 -0.024076268 -0.079419784 -0.02915833
000230 f9 eb dc 3c 2e 83 1d bd e2 2d ca 3d 2e 61 c7 3d
       0.02696799 -0.03845518 0.09872033 0.097353324
000240 ee 18 b2 bc 55 28 b2 bc b2 01 e9 3c 67 88 48 bd
       -0.021740403 -0.021747747 0.028443191 -0.04895821
000250 0e 9f 23 3d fb 3a f8 3c b5 0d 24 bd 12 c9 a3 3d
       0.03994661 0.030301562 -0.040052135 0.079973355
000260 a3 49 9b 3c 47 56 0b bd c3 9e b8 bb 79 7c 2c 3d
       0.018956011 -0.034017827 -0.0056341602 0.042110894
000270 a3 69 90 3d c5 bd 93 bd d3 01 b9 bc 17 f8 77 3d
       0.070513986 -0.0721393 -0.022583878 0.06053933
000280 29 57 90 3d 27 ef d2 3c d6 a0 8a bd f8 9b 72 3d
       0.070478745 0.025748802 -0.06768958 0.059230775
000290 12 55 c3 3a 79 46 94 3c 33 06 b5 3c e1 d4 b9 3c
       0.0014902672 0.01810001 0.022097683 0.022684516
0002a0 53 02 87 bd cd 31 01 3e 0e 07 17 bc 2d 4f 0c bd
       -0.0659224 0.12616654 -0.009217991 -0.034255195
0002b0 f1 e3 a3 3b 5d b1 be bc e0 d0 d9 3d 31 6e d5 3d
       0.005001538 -0.023277933 0.10635543 0.10421408
0002c0 60 44 ba 3c b7 81 80 bc f8 22 61 3d 21 9b 6e bb
       0.022737682 -0.015686853 0.05496499 -0.0036408382
0002d0 cf 8e 58 3d ff a4 12 3c 2c 6d 6f bd 78 fe 8a 3c
       0.052870568 0.008950471 -0.058453724 0.016967043
0002e0 44 15 ce 3d 16 24 eb bc fa ef 7a 3c 4e 56 e6 3c
       0.1006265 -0.02870373 0.015316004 0.028117325
0002f0 3c 56 3e 3c 24 10 95 3c 57 aa cf bd 7c e2 9e 3c
       0.01161724 0.018196173 -0.101399116 0.019395106
000300 f7 cc e0 3c c4 9d 79 3d ba 30 ed 3c a1 77 92 bb
       0.027441485 0.060941473 0.028953899 -0.0044698273
000310 0e 0e 09 3d 1f 0e bb 3d ec 2d eb 3c 81 96 f2 3c
       0.03346067 0.09133553 0.02870842 0.029612781
000320 85 fa 63 3d bb 73 a2 bc 32 cb 01 3e 23 9f 67 bd
       0.055658836 -0.019830575 0.12675169 -0.05654825
000330 78 a8 38 bc ca f5 85 3d cc ad 20 3d 21 18 0d 3b
       -0.011270635 0.06541021 0.039228246 0.0021529275
000340 81 19 a7 3c 1a ce 14 ba eb 47 bd bb 78 c4 d5 3d
       0.020397903 -0.00056764635 -0.0057763956 0.10437864
000350 00 db b1 bc c2 98 33 3d a4 cf 0b 3d 0f 5a 00 bd
       -0.021710873 0.043846853 0.03413357 -0.031335887
000360 2d 4e a6 3a b7 c6 52 3d d2 4b 4f 3d e9 f9 f2 bd
       0.0012688093 0.05145904 0.050609417 -0.11864073
000370 8e 03 85 3c 65 57 5d 3c 77 f4 72 3d a5 eb 63 bd
       0.016237047 0.013509606 0.05931517 -0.05564465
000380 6c 47 4a bc 20 6c 51 bc a5 99 5d 3d 45 4b 32 bd
       -0.01234613 -0.012782127 0.054101605 -0.043528814
000390 01 b5 95 bd e0 5b b8 3d 67 f9 67 3d ae 5f d5 3d
       -0.073099144 0.09001899 0.056634333 0.1041864
0003a0 f1 c6 22 3d fe 2b ee bc d1 6c b5 3c 63 e2 38 3d
       0.039740507 -0.029073711 0.022146614 0.045137774
0003b0 9f a6 2f bb d0 32 a2 3b ff bc ea 3d 53 9a f5 3d
       -0.0026802195 0.004949905 0.114618294 0.11992326
0003c0 45 61 07 bd 30 55 5b bd 8a eb bf 3d 6c 7f 8c 3d
       -0.033051748 -0.053548038 0.093710974 0.06860241
0003d0 fc e5 92 3c eb af be 3c 7b ae 3f 3d 11 9f d8 3c
       0.01793193 0.023277244 0.046797257 0.026443036
0003e0 43 d4 27 3d fc c8 e2 bb 07 24 da bc 1f 4f f0 bc
       0.040973913 -0.006920932 -0.026628507 -0.029334603
0003f0 db 54 ab 3d fd e4 84 bd 21 61 ab 3d 57 61 cf bc
       0.08365794 -0.064889885 0.08368135 -0.02531497

conv2_x.0.bn2.weight f4 [16]
000000 c6 79 72 3f 67 ee 79 3f e0 7f 88 3f e7 72 7e 3f
       0.9471706 0.976294 1.0664024 0.9939408
000010 4c 09 7e 3f 93 c6 6b 3f 37 e6 85 3f 43 74 6d 3f
       0.99232936 0.92099875 1.0460881 0.92755526
000020 13 ca 78 3f e7 4b 73 3f 05 d7 72 3f c5 59 82 3f
       0.9718334 0.9503769 0.94859344 1.0183645
000030 ee be 76 3f 89 14 88 3f cb 30 86 3f 58 02 88 3f
       0.96385086 1.0631267 1.048364 1.0625715

conv2_x.0.bn2.bias f4 [16]
000000 22 c4 76 bd f4 a3 07 3b d8 e6 18 3d ce fb bc 3c
       -0.06024564 0.002069709 0.037329525 0.023069289
000010 7c 9f 65 bb 85 25 ca 3c cb 1f fe 3c 65 06 87 bc
       -0.0035037687 0.024676094 0.03102102 -0.016482541
000020 f7 3b 6d bd db f8 75 3c 69 04 1f 3d 07 6b 3d 3d
       -0.057918515 0.015012945 0.038822565 0.046244647
000030 e5 af d9 3d 92 24 2f 3d 3f 66 b5 3c 42 06 2f 3d
       0.10629252 0.042759486 0.022143481 0.042730577

conv2_x.0.bn2.running_mean f4 [16]
000000 b6 35 a0 bd 0f a0 b1 bc fb 61 bb bd 48 6a cc bc
       -0.078227445 -0.021682767 -0.09149548 -0.024953023
000010 6c f4 f4 3d ec d3 ca 3d 00 06 25 be 09 b2 f1 3d
       0.11960682 0.09903702 -0.1611557 0.11801536
000020 2b 82 1d bd da 7c 99 bd 0c e5 86 3e 6f c4 96 bd
       -0.038454216 -0.07494517 0.26346624 -0.073616855
000030 03 74 2a 3d 6d ea 03 be de a4 d8 bd 69 cf 1b be
       0.041614544 -0.12882395 -0.10578321 -0.1521584

conv2_x.0.bn2.running_var f4 [16]
000000 fc b4 bc 3e 5d 73 97 3e 2a c4 78 3e 6d 3b 24 3e
       0.3685683 0.29580203 0.2429358 0.16038294
000010 0e 8c eb 3e 01 f7 bb 3e 91 6f 0b 3f c0 e1 9a 3e
       0.4600529 0.36711887 0.5446711 0.3025036
000020 1b 78 3b 3e ac bc af 3e 0e 08 a5 3f 37 e1 44 3e
       0.18307535 0.34323633 1.2893083 0.19226538
000030 64 0f ed 3e ea 50 d7 3e d0 2a 60 3e 3e c1 bf 3e
       0.46300805 0.4205392 0.21891332 0.3745212

conv2_x.0.downsample.weight f4 [16, 8, 1, 1]
000000 f8 80 00 bd 49 14 4b bc 50 42 64 3e 82 6a 33 be
       -0.031372994 -0.012394973 0.22290921 -0.17521098
000010 21 f9 5d 3e 1c 92 5b 3e c4 f3 bb 3d 1a 89 2a 3c
       0.21677066 0.21442455 0.09177354 0.010408664
000020 d7 39 97 be 28 74 8c bd 8d f6 44 be 07 0b 19 be
       -0.29536316 -0.068580925 -0.19234677 -0.14945613
000030 28 94 86 be a9 26 6f be 29 0c a4 bd a6 4d e0 3d
       -0.2628491 -0.23354591 -0.08010132 0.1095231
000040 e7 c0 da bb 4d 79 26 be f1 25 ba bd 75 62 77 3e
       -0.006675828 -0.1625721 -0.09089268 0.24158652
000050 0e c1 5b be 26 4a 9b 3e 2d 52 97 bd 76 84 59 3e
       -0.21460363 0.30330008 -0.07388721 0.21241936
000060 90 19 45 be 96 a4 72 3e e3 c9 85 3e 6a 03 0b 3e
       -0.19248033 0.23695597 0.2613059 0.13575521
000070 ba 58 a9 be b6 34 a0 be 30 88 37 be 41 d7 1b bd
       -0.33075505 -0.31290215 -0.17923045 -0.03804708
000080 63 ed 00 be 63 2e 36 3e a3 78 3a bd 64 07 20 3d
       -0.12590556 0.17791133 -0.045525204 0.03906955
000090 0a eb 81 3e cb e3 29 be 24 28 22 be 01 01 73 be
       0.25374633 -0.16590802 -0.15835625 -0.23730852
0000a0 cb 61 05 3e 21 c2 d4 bd e4 f6 e7 3d ed cb 35 be
       0.13025586 -0.1038859 0.113263875 -0.17753573
0000b0 e8 da 35 be 9d 4f e3 bd 6a f4 3f be 7e 8b e1 bd
       -0.17759287 -0.110991694 -0.1874558 -0.11012934
0000c0 67 fe f0 bd a8 37 01 be 39 94 13 be 52 df 09 3e
       -0.117672734 -0.12618887 -0.14412011 0.13464096
0000d0 37 aa 81 3e 12 a8 57 3d dc c8 6b 3e ce 8f da bd
       0.25325176 0.05265052 0.2302584 -0.1067196
0000e0 88 ff a3 be cf 20 3b 3e 5e 80 04 be 86 2f ac 3e
       -0.32030892 0.18274234 -0.12939593 0.33630008
0000f0 27 7c a2 be b5 24 6b be 81 a8 19 be d2 72 7e be
       -0.31735346 -0.22963221 -0.15005685 -0.24848488
000100 0b 36 51 3e e5 c8 a0 3e 7d 32 dc 3d 04 ca 1e bd
       0.20430772 0.3140327 0.107518174 -0.038766876
000110 f6 fb 95 3d 76 dc 52 be 62 70 41 3e 31 da b6 bd
       0.07323448 -0.20591912 0.18890527 -0.089283355
000120 d7 da fd bd 48 e6 a6 3d eb 95 76 be 33 dd 5c be
       -0.12395256 0.081493914 -0.24080627 -0.21568756
000130 a6 d3 d5 3d 59 e4 a3 be 2f 5c ad 3e b1 24 ab 3d
       0.10440759 -0.32010153 0.33859393 0.08356608
000140 3f a0 5d bc de 36 82 bd ca fe 28 3e 23 8d b3 3d
       -0.013526975 -0.06358121 0.16503444 0.08767154
000150 2f de 00 be e0 d8 9d 3e 79 61 1b be ba 02 d2 bd
       -0.12584756 0.30829525 -0.15173902 -0.10254426
000160 2a 45 63 3e 8b 31 e8 bd dc 3c 16 be 18 17 79 3e
       0.22194353 -0.113375746 -0.14671654 0.24325216
000170 86 7a 96 3e 44 72 aa be 20 bb 97 3d ae a7 45 be
       0.29390353 -0.33290303 0.07408738 -0.19302246
000180 15 78 8b 3e 86 a5 51 3c 2a 2e ab be 6c e6 16 be
       0.27240053 0.0127958115 -0.33433658 -0.14736336
000190 5c 61 8f 3e 31 81 41 bd 3b 13 94 be b9 15 c8 bd
       0.28003967 -0.047242347 -0.28920922 -0.09769768
0001a0 b3 b1 8f 3c e5 37 15 be aa ba 65 be 31 d3 10 be
       0.017540788 -0.14572103 -0.22434488 -0.14143063
0001b0 8c 73 74 bd b3 56 ef 3d 7c 5b 7b 3c 41 0b 3d bc
       -0.059680507 0.116864584 0.015341636 -0.011538328
0001c0 57 52 85 bd 37 8f b4 3e 4b bc d2 3d 36 3b 90 be
       -0.06509846 0.35265514 0.1028982 -0.28170174
0001d0 f5 fc 9c be 9f c7 84 be 47 a5 e8 bc 87 b7 2e be
       -0.3066174 -0.2593355 -0.028399123 -0.17062198
0001e0 6d ee 2f bd 28 99 83 be 2b ff 91 be 38 57 40 bd
       -0.04295199 -0.25702786 -0.2851499 -0.04695818
0001f0 2e 00 58 3e b8 46 1f 3e ea e7 cd 3c 68 6a ef bb
       0.21093819 0.15554321 0.025135 -0.007306386

conv2_x.0.downsample.bias f4 [16]
000000 36 02 a1 be 88 70 a0 bc 25 82 b2 be 3c 76 31 3e
       -0.31447 -0.01958491 -0.34864917 0.17330259
000010 bc a2 bb 3d 42 5b 91 be e2 00 7b be 4b 86 a8 bd
       0.091618985 -0.28389937 -0.24512056 -0.08228739
000020 3c ca d4 bd fe 35 26 be 47 e8 cd 3d ba 22 28 3e
       -0.10390136 -0.16231534 0.10054069 0.16419497
000030 42 dc 90 be 4e 09 50 3d 54 ca ff bc 44 22 32 be
       -0.28293043 0.050790124 -0.031224407 -0.17395884

conv2_x.1.conv1.weight f4 [16, 16, 3, 3]
000000 c7 e2 18 3d d7 e1 a0 3c ee 49 57 bc d2 f5 3a 3d
       0.037325647 0.019638939 -0.013140185 0.04564459
000010 f0 f2 0b bc 0e 7a 33 3d 94 38 54 bd 58 8f 02 3d
       -0.0085418075 0.043817572 -0.05181177 0.031874985
000020 ce d5 b9 3c 2f 59 cb 3b 8e 3a fe 3c 92 f5 f1 bb
       0.022684958 0.0062057 0.03103378 -0.0073840106
000030 52 5a 24 3d 69 c2 0a 3d b3 0b 34 3d 1a 9c 73 bc
       0.0401252 0.03387681 0.04395647 -0.0148687605
000040 d4 7a 15 bc 4a 8b 36 bd c6 1f ce 3c a9 d6 0d 3d
       -0.009123523 -0.04456643 0.025161635 0.034628544
000050 13 43 72 3c 07 d8 b8 3b 9b 50 28 3d ef 85 37 3d
       0.0147865 0.005640987 0.041092496 0.044805463
000060 2c 48 13 bd 33 d9 70 bc 5e da cb 3c dc e7 57 3d
       -0.0359575 -0.014700222 0.024884399 0.052711353
000070 e2 35 84 bc 9a ef 56 bd 7d 5c 60 3d b1 ce 88 3d
       -0.016138975 -0.052474596 0.054775704 0.06680048
000080 9d 4c 3c 3d 13 c0 46 3d f9 f6 08 bc 22 c6 55 3d
       0.0459715 0.04852302 -0.008359664 0.052190907
000090 92 a0 16 bd c8 e6 74 bc d5 6b 48 3d 16 09 96 bd
       -0.036774226 -0.014947601 0.04893096 -0.07325952
0000a0 40 6a 23 bd 11 43 50 3d 2c 25 c7 3d 14 82 c8 3c
       -0.03989625 0.05084521 0.09723887 0.024476089
0000b0 6d f5 0c 3e 56 7c 41 bd ad 54 9e 3d fc 66 a6 3c
       0.13765498 -0.047237717 0.077309944 0.020312779
0000c0 d3 5e 70 3d 18 5d f0 3d cd 79 ef 3c 8d 4d b8 3c
       0.05868418 0.11736506 0.029232884 0.022497917
0000d0 a9 af 6d 3c 12 17 69 3d 9a ce 25 3d 14 0a 4b bb
       0.014507213 0.056906767 0.040480234 -0.0030981349
0000e0 fe 4f 48 3d cd 03 87 3d 52 16 23 bd 3a 18 05 bd
       0.04890441 0.06592522 -0.03981621 -0.032493807
0000f0 ec a7 d7 3c 11 19 54 bd 83 02 46 3c a0 a3 23 bd
       0.026325189 -0.051781718 0.01208556 -0.039950967
000100 4c 14 09 3d d7 e7 85 bc f0 5c 9b bd d7 a9 02 bb
       0.033466622 -0.016345901 -0.07586086 -0.0019937658
000110 e4 0e 8d 3d 67 32 a3 3b 56 d1 5c 3b 00 10 fb 3c
       0.06887606 0.0049803737 0.003369411 0.030647278
000120 fa 59 18 3c 92 9f 0c bd cb 82 8c 3c 9e 2b 39 3d
       0.009298796 -0.034331866 0.01715221 0.045207612
000130 db a5 17 3c 6d 96 99 bd 62 10 3d bd 93 24 85 bd
       0.009255852 -0.074993946 -0.046158202 -0.065011166
000140 ab cd cc bc 79 a9 fc 3b ac 20 99 3d c3 ac e2 3b
       -0.025000414 0.0077106324 0.07476935 0.0069175675
000150 2f 53 c0 3d 46 8c 01 3d c0 07 6e bc cd 9e 4c 3d
       0.09390866 0.031627916 -0.014528215 0.04995613
000160 6d 99 b0 3c 29 91 c5 bd 64 08 eb 3c 88 fc 6f bd
       0.021557534 -0.09646828 0.028690524 -0.058590442
000170 70 4e ce 3c 45 b0 f3 3c 32 99 0e bd 89 66 42 bc
       0.025183886 0.029747138 -0.034814067 -0.011865267
000180 8f 7a cd bb 28 d1 cb bc 9e 7a 0d 3d 88 84 28 bd
       -0.0062707136 -0.024880007 0.034540765 -0.041142017
000190 6d 58 20 3c 6d 55 b1 bc d6 57 9d bd 49 88 9a bd
       0.009786707 -0.02164718 -0.07682769 -0.075455256
0001a0 0a 04 8f bd 7c a2 a9 bd 05 25 29 bc b1 b8 3b 3d
       -0.06983192 -0.082829446 -0.010323768 0.045830432
0001b0 6f 10 95 3d 8b f4 56 3d cc 74 85 3d c6 a9 22 3c
       0.07278525 0.052479308 0.06516418 0.009928172
0001c0 ec 7c 4f bd 88 de 54 3d bb 2e 4d bc 6a 49 ea 3c
       -0.050656244 0.051970035 -0.012523348 0.02859946
0001d0 c2 1f 72 3d af 07 5e bd 94 6b 21 3c be c4 83 3d
       0.059112318 -0.054206546 0.009852309 0.0643401
0001e0 dd be d4 bb 57 0e f1 3c 07 62 61 bd d7 f0 83 3d
       -0.0064924792 0.029425783 -0.055025127 0.06442421
0001f0 31 3c 9e 3d ad 12 a4 3d 89 d1 92 bc ee c6 30 bd
       0.07726324 0.080113746 -0.01792218 -0.043158464
000200 8c 69 07 3c 15 63 0d 39 36 7a c2 3c 6d 86 12 3c
       0.00826491 0.00013483719 0.023739915 0.008943182
000210 6a d7 52 3d 16 1d 5d bc ff 40 58 bd 09 85 4b bc
       0.051474966 -0.013495704 -0.05279636 -0.012421855
000220 39 a5 09 3d 78 13 87 3d 9a c0 1c 3d 08 a4 f6 b9
       0.033604834 0.0659551 0.038269617 -0.0004704299
000230 11 2e 33 3d 73 b2 de 3c ec c7 a8 bd 16 1e 0a bc
       0.043745104 0.0271847 -0.08241257 -0.008430025
000240 87 e9 e3 bc e4 b9 c2 3c 60 63 03 bd 89 c7 64 bd
       -0.027821315 0.02377028 -0.032077193 -0.055854354
000250 bd 91 f7 bc 99 81 d8 3b 00 a8 44 bc fd 5e e2 3b
       -0.03022086 0.006607246 -0.012002945 0.006908296
000260 c6 bb 27 3d 24 12 8a 3b a3 dc 06 bd fe dc e1 bc
       0.04095056 0.0042135883 -0.03292526 -0.027571198
000270 af 5a 86 bd 3e 97 a3 3d b9 e1 99 3d 0d 56 4f 3d
       -0.06560265 0.079878315 0.07513756 0.050619174
000280 3e e0 70 bd 59 5d b9 3d eb 8d 67 bd 1b 88 f8 ba
       -0.058807604 0.09051008 -0.056531828 -0.0018961461
000290 04 9b 35 3d 43 cf 6b 3b 25 fa 8c 3c ec ea 45 3b
       0.044337288 0.0035981692 0.017209122 0.0030199839
0002a0 61 ac 81 3d f1 85 c7 bc a9 ab 6d 3c d2 3f 10 bc
       0.06331707 -0.02435586 0.014506259 -0.008804278
0002b0 7a 80 0b 3d 36 13 ae 3b 98 b5 8e bd af 62 2f bd
       0.03405807 0.0053123487 -0.0696823 -0.04281872
0002c0 2a f4 a5 3d 8e 82 9b bd 28 d1 60 bd f4 00 e3 3c
       0.08103211 -0.07593261 -0.054886967 0.027710415
0002d0 fa 07 0b bd f1 d6 93 bb 2f 03 6e 3d 5f c5 f4 bb
       -0.033943154 -0.004511707 0.058108505 -0.0074698175
0002e0 d7 ea b3 bd 2b 63 fb bc 59 2f 71 bd 59 4b 25 bd
       -0.087850265 -0.030686935 -0.058883045 -0.04035506
0002f0 e6 80 3e bd e3 39 09 bd 7a 84 58 bd 99 64 2f bb
       -0.046509646 -0.03350247 -0.052860714 -0.0026762842
000300 b9 e2 8d bd c6 c2 be bc e9 b8 cb 3d ce 67 68 bd
       -0.069280095 -0.023286235 0.09947378 -0.05673962
000310 b9 fe 13 3d 97 b3 a6 3d b4 e3 43 bd 4b b6 89 bc
       0.036131594 0.08139723 -0.047824576 -0.016810557
000320 e2 f7 6c 3d ed 1f 6a bd 2c d5 76 bd 4b ba 29 bd
       0.057853587 -0.057159353 -0.06026189 -0.04143743
000330 90 80 68 3d df 6b 24 bd 7d f3 84 bd 1a 39 5c 3c
       0.05676323 -0.040141936 -0.06491754 0.013441348
000340 cc 80 32 3d 94 e9 2f bd 22 d9 54 3b bf 54 95 3d
       0.04357986 -0.042947367 0.0032478054 0.07291555
000350 b3 19 3c bc 36 ea b0 bc 17 80 3a 3d 63 08 7e 3c
       -0.011480737 -0.021596055 0.045532312 0.015504929
000360 f2 52 7e 3c 73 03 e1 3c ff cd 4c 3c 7c 20 b6 3b
       0.015522705 0.027467465 0.012500285 0.0055580717
000370 ca df d0 3b 42 16 10 3d 9c f9 8c bd 15 12 b7 3c
       0.006374334 0.035177477 -0.06883547 0.02234749
000380 73 b1 fc bc ee bc 0a 3d 9f e3 9c bd bf 8c f8 bc
       -0.030846333 0.033871584 -0.07660603 -0.03034055
000390 cf ab f1 bc 59 73 32 3d 64 5a 82 ba 52 37 8e 3c
       -0.02950087 0.043567035 -0.0009945151 0.017360363
0003a0 2e d3 15 3a dd b8 e1 bc 71 e3 fe bc 61 e4 57 3d
       0.0005715367 -0.02755397 -0.031114312 0.052708033
0003b0 a6 ef 93 bb 08 2b 4e 3d 4d 43 f9 bc df 7b 9e 3c
       -0.0045146523 0.050334007 -0.0304276 0.019346176
0003c0 a7 e5 14 bd 12 19 95 bc 7d a1 c3 bd 2b 1c 90 3d
       -0.036351826 -0.018200431 -0.09552286 0.070366226
0003d0 86 12 8b bc 34 ef f8 ba 28 88 55 3d ef 33 90 bd
       -0.016976606 -0.0018992187 0.0521318 -0.070411555
0003e0 2a 36 bd bd 05 2c 23 3d fc ec 85 bc 9d 2d cd 3b
       -0.092388466 0.039836902 -0.016348355 0.006261541
0003f0 c6 c8 30 bd 46 85 81 3d 75 d1 3b 3c 16 5c 78 bd
       -0.043160222 0.06324248 0.011463513 -0.060634695

conv2_x.1.bn1.weight f4 [16]
000000 aa 21 74 3f 0a 0a 89 3f 06 59 70 3f 1e 1e 7e 3f
       0.9536387 1.0706189 0.9388584 0.99264705
000010 39 28 85 3f 91 db 81 3f 59 59 86 3f d2 bd 86 3f
       1.04029 1.0145131 1.0496017 1.0526679
000020 b6 e3 64 3f 61 1c 80 3f d1 30 72 3f dd 4f 87 3f
       0.8940996 1.000866 0.9460574 1.0571247
000030 42 5f 81 3f 1a 77 81 3f c4 e0 81 3f 67 8c 86 3f
       1.0107195 1.0114472 1.0146718 1.0511597

conv2_x.1.bn1.bias f4 [16]
000000 65 16 d0 bc 1c 6e 96 bd d0 15 19 bd 8e 70 89 bd
       -0.025401304 -0.073452204 -0.037374318 -0.06710921
000010 b5 c9 07 bd cc c3 53 bc 30 7f b3 3c 3f 60 0d 3d
       -0.033151347 -0.0129251 0.021911234 0.034515616
000020 3e c9 94 3c 78 33 cd 3c d7 69 13 bc 34 37 94 3b
       0.018162366 0.025048956 -0.008997402 0.0045231823
000030 1f ec 2c bc 10 45 47 3b 80 51 1b bd 5b 0f 47 3c
       -0.0105543425 0.0030406155 -0.03791952 0.012149657

conv2_x.1.bn1.running_mean f4 [16]
000000 09 ab 28 3d 2d 51 5b be 8a 0c 27 be b9 ec 31 bd
       0.041178737 -0.21417685 -0.16313377 -0.043438647
000010 1a 4a 35 be ae 95 23 bf 20 40 c6 be c5 03 28 bf
       -0.17704049 -0.6390027 -0.38720798 -0.6563075
000020 c1 d3 d3 3b 44 98 d2 be 84 5c 01 3e 01 50 98 3d
       0.006464452 -0.41131794 0.12632948 0.074371345
000030 18 e5 d7 be 5e 15 91 be f8 ff e1 be 20 40 34 be
       -0.42166972 -0.28336614 -0.441406 -0.17602587

conv2_x.1.bn1.running_var f4 [16]
000000 02 a5 42 3f cd db 85 3f 48 ff 9e 3e 13 c3 9f 3e
       0.7603303 1.0457703 0.3105414 0.31203517
000010 b6 1a bc 3e 0f 96 d7 3e 1e 7a 99 3e ce d7 7d 3f
       0.3673913 0.42106673 0.2997598 0.99157417
000020 06 1f f6 3e d8 52 ab 3e 92 e9 35 3e a3 e8 c7 3e
       0.48070544 0.33461642 0.17764881 0.39044675
000030 0c 39 a8 3e 73 9c 74 3e 5f 68 61 3f 66 83 32 3e
       0.32856023 0.23887806 0.8804988 0.17432937

conv2_x.1.conv2.weight f4 [16, 16, 3, 3]
000000 ba bc ab 3b 66 2d 5d bd 25 c6 71 3d c6 55 c0 3b
       0.005241004 -0.053998373 0.059026856 0.0058696
000010 c1 b9 51 bc 91 cf 2f bd d9 c9 88 3d 78 5e e8 3b
       -0.012800635 -0.04292256 0.066791244 0.0070913397
000020 84 1b 8f 3d 0c a3 94 bd 34 33 9c bc a6 72 57 bd
       0.0698767 -0.07257661 -0.019067384 -0.05259957
000030 27 17 7b bc 2c 3b 5f 3d 22 4b 1c bd 4f 64 a9 3d
       -0.015325344 0.05449979 -0.03815759 0.082710855
000040 7b ca c0 bb 38 15 33 3d 35 4b 98 bc 34 5c 53 bd
       -0.0058835126 0.043721408 -0.018590549 -0.051601604
000050 1c ca 65 3d 75 9d 84 bc 8f f4 ba 3d 11 3a 57 3c
       0.05610095 -0.016188363 0.09128677 0.013136403
000060 00 8e 7f 3d 60 e2 4b 3d f4 48 78 bc b0 cd 41 3d
       0.06239128 0.049776435 -0.015154112 0.0473153
000070 e3 4b d3 3d fb bb 7b 3d 0f 73 62 bd 38 e8 99 3d
       0.103172086 0.06145857 -0.05528551 0.07514995
000080 4d e8 93 3d 35 a8 23 bd 44 f9 f5 36 f7 df 17 bb
       0.07222042 -0.039955337 7.3305873e-06 -0.0023174265
000090 7b 85 5d bd 9c bb bf bc 2c a1 b3 3c ac b9 0f 3d
       -0.054082375 -0.023404889 0.021927439 0.03508918
0000a0 1a 81 12 3d 33 78 a9 3d 3d 6c 78 3d 61 83 a0 bd
       0.035767652 0.08274879 0.0606501 -0.078375585
0000b0 f8 ad 1f bc 46 d0 85 bd cf 2a 2e 3c 74 c7 25 3d
       -0.009746067 -0.06533866 0.010630324 0.040473416
0000c0 f2 5e 0d bd 83 14 64 bd 65 b7 8a bc d5 11 54 3d
       -0.034514375 -0.055683624 -0.016933152 0.05177482
0000d0 dc 22 6d bc 31 98 40 3c 6e 13 35 bd be 92 8a bd
       -0.014473643 0.011755035 -0.044207983 -0.0676627
0000e0 e1 cd 1c 3d 2f 3e 86 bd 0c c4 dd 3d 1e 9c 0a 3d
       0.03828228 -0.06554829 0.108284086 0.03384029
0000f0 1f 83 ee bc c0 08 a5 bd 1e e2 a1 bd b0 0d 1e 3c
       -0.029115258 -0.080583096 -0.079044566 0.009646818
000100 55 68 a9 3c 45 5d a2 3d 00 a3 bf bd 06 33 62 bd
       0.020679632 0.07927946 -0.09357262 -0.05522444
000110 86 a7 82 bc f9 22 3e 3d 8d 83 a0 3c 08 15 af 3b
       -0.015949022 0.04642007 0.019593978 0.0053430833
000120 db 33 98 bd 7a b1 93 bd b8 84 fa ba a9 94 03 bd
       -0.07431766 -0.07211585 -0.001911304 -0.032124195
000130 f6 3f ff 3c 79 95 5a 3c 01 9c 20 3d 44 0c 0f bd
       0.031158429 0.013341301 0.039211277 -0.034923807
000140 c3 fb 8b bb 91 08 86 bc 71 d8 89 3d ee 0f ba bd
       -0.0042719557 -0.016361507 0.06730736 -0.090850696
000150 f7 4f 41 3d 9d 05 be 3d d9 ef 20 3c 67 9c 89 bd
       0.0471954 0.092784144 0.009822809 -0.067192845
000160 1d e8 cb bc bb ff 3a bc ee cb aa 3d b2 7e 1f 3c
       -0.024890954 -0.01141351 0.08339678 0.009734796
000170 8a 51 8e 3d e5 94 9c 3d cf 73 77 bc 51 49 be bd
       0.06949146 0.07645587 -0.0151032945 -0.09291328
000180 b8 a6 c7 bd 83 87 b3 bd 7f fe b3 bd 77 d3 3d bd
       -0.09748596 -0.08766081 -0.08788776 -0.046344247
000190 81 7c 9e bd bd 98 d0 bc 2a b4 2f 3d d1 4f ae 3c
       -0.07738591 -0.025463456 0.042896427 0.021278294
0001a0 c7 b7 c5 3d 1c 78 a5 bc a0 a0 9b bd f6 65 89 3d
       0.09654193 -0.020198874 -0.07598996 0.06708901
0001b0 07 59 6d 3b 49 9e 88 bd 7d 24 77 3d c4 86 6d bc
       0.0036216395 -0.066708155 0.060337532 -0.014497463
0001c0 8c aa 10 bd cd 58 bc 3c bf c7 42 3c b8 93 22 3d
       -0.035318896 0.022991562 0.0118884435 0.039691657
0001d0 28 63 74 bc 18 aa b7 bb 41 20 f8 3c ee b9 0a 3d
       -0.014916219 -0.0056049936 0.030288817 0.033868723
0001e0 dd fc 54 3d f3 d6 1c bb e6 96 be bc 63 e8 88 bc
       0.05199896 -0.002393183 -0.023265313 -0.016712373
0001f0 18 55 99 3c 3f fe 00 3d 61 36 30 3d 66 3e 01 bc
       0.018717334 0.031492468 0.04302061 -0.007888412
000200 ea 4d 56 3d 06 35 e8 3c 2c d4 50 bd 1d 13 c4 bd
       0.0523204 0.028345596 -0.050983593 -0.09573958
000210 89 cf 10 bd 57 c5 eb 3c 1a a2 91 bd a9 80 f6 bc
       -0.03535417 0.028780622 -0.071109965 -0.030090647
000220 b7 3c 9d bb 55 bf 93 3d 52 a9 71 3d 60 e6 8b bd
       -0.0047984975 0.07214228 0.058999367 -0.0683105
000230 dc 98 6a 3d 7c a4 d7 bd 50 d9 ba bd 36 2a 7c bd
       0.057274684 -0.1052942 -0.0912348 -0.061563693
000240 71 c6 91 bd f5 b9 2d bd 7a f7 83 bd af 61 5e bc
       -0.07117928 -0.04241367 -0.06443687 -0.013573094
000250 ed fe 9c 3c a3 d3 4b bd c7 30 95 bc a3 fa db 3c
       0.019164527 -0.04976238 -0.018211735 0.026852911
000260 6e 75 bb 3d 8a 31 a0 bb 42 5f 6e bd 63 9e f9 bc
       0.09153257 -0.004888718 -0.058196314 -0.030471032
000270 49 ce 59 bd 8f 3b 92 3d 3c d0 bc bc d5 98 fb 3c
       -0.053175244 0.07140266 -0.023048513 0.030712524
000280 3b d7 a1 3c cd 9e b7 3d 2b 31 a4 bd 25 cb 6a bd
       0.01975595 0.08965836 -0.080171905 -0.05732264
000290 f3 8a 93 bd 68 63 5b bd 8b f5 30 3d f2 bc ac 3b
       -0.07204237 -0.053561598 0.043202918 0.0052715475
0002a0 82 e4 49 3d bd f6 f0 3d 56 99 28 3d 6c 47 82 bd
       0.049290188 0.117658116 0.041161858 -0.06361279
0002b0 f4 48 fa bc b0 3f 46 bd cd 86 f6 bc f1 c5 7b 3d
       -0.030552365 -0.04840058 -0.030093575 0.06146807
0002c0 7a 08 4b 3d 73 65 8e 3d cb 73 b2 bd 5d e2 3d 3c
       0.04956863 0.06952944 -0.08713492 0.011589614
0002d0 92 02 db 3c e5 65 37 bb 33 08 f6 bc e9 b4 92 3c
       0.026734624 -0.0027984318 -0.030033207 0.01790853
0002e0 2f 7c d6 3d af 5c 90 3d 72 a5 de 3c cb 7a 1e 3a
       0.10472905 0.07048928 0.0271785 0.0006045519
0002f0 68 e7 98 bc d1 8a 48 bb 04 06 09 bd 4d f1 6e bd
       -0.01866503 -0.003060032 -0.033453003 -0.05833559
000300 fa c1 4c 3d 02 be 01 bc 73 ce c1 3c ae 21 07 3c
       0.049989678 -0.007918837 0.023658013 0.008247776
000310 8c 76 b6 3c aa d0 28 3c 16 99 00 3d 43 b1 20 3d
       0.022273324 0.010303656 0.031395994 0.03923155
000320 43 a2 06 3c 4d da af 3c 18 ff af bc 92 f9 18 bb
       0.008217397 0.021466399 -0.021483943 -0.0023342115
000330 7b 8f 56 3c a9 4c 2c bb e3 e2 b2 3d a1 5b b8 bd
       0.013095732 -0.002629081 0.087346815 -0.09001852
000340 3d 6a d0 bd 30 66 5b ba d3 04 a4 bd 9f 81 4d bc
       -0.10176513 -0.0008369414 -0.08008733 -0.012543111
000350 30 73 9f bd 72 9c ce bd 52 4f 6e 3c 8b 41 2f bc
       -0.07785642 -0.10088433 0.014545279 -0.010696779
000360 b1 fa 84 3d b4 dd 94 3c 3d 5f 73 bd 4b f1 3f bd
       0.06493128 0.018172123 -0.059417 -0.046860974
000370 5e 0b 49 bd b8 c4 a3 bc 2c 0b de 3c 49 6e 93 bd
       -0.049083106 -0.019991264 0.027104937 -0.071987696
000380 34 c9 c2 bd 56 9d 5b 3d 29 77 b5 3d f9 a9 27 3d
       -0.09511033 0.053616844 0.088606186 0.040933583
000390 72 ee 89 3d 6f 7f bd bb 06 b9 f5 3a cf 13 02 bd
       0.06734933 -0.0057830135 0.0018747158 -0.031757172
0003a0 d7 3a 4c 3d fe c4 a6 3d 67 53 e3 3c bf f1 95 bc
       0.0498608 0.08143042 0.02774973 -0.01830375
0003b0 76 68 8e bc 69 c6 0f bd 17 b0 0c 3d 7a c7 c4 3b
       -0.017383795 -0.035101328 0.03434762 0.006005225
0003c0 6f b4 2b 3d 94 45 0a 3d 63 0f 9d bd 43 24 aa bd
       0.04192012 0.03375776 -0.076689504 -0.083076976
0003d0 61 c2 73 3d fc 31 7c 3b 41 ba d6 3c e5 27 af bd
       0.059511546 0.0038481941 0.02621186 -0.08552531
0003e0 9a 48 0e 3c 9a 6a 9e 3d 87 b2 bf bd 14 cc 24 3a
       0.008684302 0.077351764 -0.09360223 0.00062865135
0003f0 a1 93 6e 3d 6f 79 de 3b f5 de 15 3c 2e 9c 1b bd
       0.05824626 0.0067893784 0.009147395 -0.03799074

conv2_x.1.bn2.weight f4 [16]
000000 d4 21 81 3f 33 f7 84 3f 7c 1c 82 3f e9 e2 7b 3f
       1.0088449 1.0387939 1.0164943 0.9839311
000010 bf 71 85 3f 6a 20 92 3f 16 3c 8a 3f 56 58 84 3f
       1.0425338 1.1416142 1.0799587 1.0339458
000020 81 98 85 3f 38 6d 7a 3f e2 ca 8f 3f de a6 78 3f
       1.0437165 0.97822905 1.123379 0.9712962
000030 ab 17 81 3f a7 15 8f 3f 10 89 82 3f 0c 65 88 3f
       1.0085348 1.1178483 1.0198078 1.0655837

conv2_x.1.bn2.bias f4 [16]
000000 b5 b9 2b bc 9e a7 ef bb c2 49 15 bd 79 a6 0d bc
       -0.010481288 -0.0073136827 -0.036447294 -0.008645647
000010 dc 82 87 3c f7 6d 00 bc e4 d3 73 3d ba 89 77 3d
       0.01654189 -0.007838718 0.059528247 0.06043408
000020 b7 b4 ed 3b 3b 7d 1f 3b 35 6e 49 3d 7c 0f b7 3c
       0.007254209 0.0024336118 0.049177367 0.02234625
000030 f0 14 11 bd 9e 67 ba 3d c4 01 8c 3b d1 ed 5e 3d
       -0.03542036 0.09101795 0.0042726714 0.05442602

conv2_x.1.bn2.running_mean f4 [16]
000000 1f 1a 5d 3e 32 d4 e0 bd 13 39 e1 bd d8 0e 01 bd
       0.21591996 -0.10977973 -0.10997214 -0.031508297
000010 12 82 40 be d2 c2 79 3c 6e 5f f0 bd c5 41 99 bd
       -0.18799618 0.015244203 -0.11736952 -0.07483248
000020 f4 3e a6 bd b1 b5 96 bc 46 df 86 bd bc c6 62 3d
       -0.08117476 -0.018397184 -0.06585555 0.05536531
000030 8e 1e 6d 3e f9 71 82 be 78 ce 30 bc 00 16 04 be
       0.23156187 -0.2547758 -0.0107914135 -0.12899017

conv2_x.1.bn2.running_var f4 [16]
000000 33 ff d3 3d ae 41 3b 3d 63 17 7c 3d d2 48 2a 3e
       0.1035141 0.045716934 0.06154574 0.16629341
000010 24 d7 90 3d 64 b1 2d 3d c7 61 b3 3d b2 37 17 3e
       0.07072285 0.0424055 0.08758884 0.1476734
000020 f3 f1 33 3d 57 8e c4 3d 24 df a8 3d e2 fd ea 3d
       0.043931913 0.09597462 0.08245686 0.114742056
000030 35 af 87 3d 0e d8 9d 3d 2d 5a e3 3d 6a d9 b9 3d
       0.06625215 0.07707225 0.11101184 0.090746716
